…
tive Agg backend
[3, 3, 3]
[4, 8, 16]
Pytorch Training main.py; workers: 6; numOfStages: 3; layerinBlock: 1;widthofFirstLayer: 16; Epochen: 120; reset: False; start epoche: 1; test: True pathtoModell: ./output/experimente4/room2x1/model.nn; checkpoint: ./output/experimente4/room2x1; saveModell: True; LR: 0.1
random number: 8780
Files already downloaded and verified

width: 4
module: Conv2d(3, 4, kernel_size=(3, 3), stride=(1, 1), padding=(1, 1), bias=False)
module: BatchNorm2d(4, eps=1e-05, momentum=0.1, affine=True, track_running_stats=True)
module: ReLU(inplace=True)
module: Sequential(
  (0): Conv2d(4, 4, kernel_size=(3, 3), stride=(1, 1), padding=(1, 1), bias=False)
  (1): BatchNorm2d(4, eps=1e-05, momentum=0.1, affine=True, track_running_stats=True)
)
width Module: 4
conv gefunden
(i,j): (3, 0
module: Sequential(
  (0): Conv2d(4, 4, kernel_size=(3, 3), stride=(1, 1), padding=(1, 1), bias=False)
  (1): BatchNorm2d(4, eps=1e-05, momentum=0.1, affine=True, track_running_stats=True)
)
width Module: 4
conv gefunden
(i,j): (4, 0
module: Sequential(
  (0): Conv2d(4, 4, kernel_size=(3, 3), stride=(1, 1), padding=(1, 1), bias=False)
  (1): BatchNorm2d(4, eps=1e-05, momentum=0.1, affine=True, track_running_stats=True)
)
width Module: 4
conv gefunden
(i,j): (5, 0
module: Sequential(
  (0): Conv2d(4, 8, kernel_size=(3, 3), stride=(2, 2), padding=(1, 1), bias=False)
  (1): BatchNorm2d(8, eps=1e-05, momentum=0.1, affine=True, track_running_stats=True)
  (2): ReLU(inplace=True)
)
width Module: 4
module: Sequential(
  (0): Conv2d(4, 8, kernel_size=(1, 1), stride=(2, 2), bias=False)
  (1): BatchNorm2d(8, eps=1e-05, momentum=0.1, affine=True, track_running_stats=True)
)
width Module: 4
module: Sequential(
  (0): Conv2d(8, 8, kernel_size=(3, 3), stride=(1, 1), padding=(1, 1), bias=False)
  (1): BatchNorm2d(8, eps=1e-05, momentum=0.1, affine=True, track_running_stats=True)
)
width Module: 8
module: Sequential(
  (0): Conv2d(8, 8, kernel_size=(3, 3), stride=(1, 1), padding=(1, 1), bias=False)
  (1): BatchNorm2d(8, eps=1e-05, momentum=0.1, affine=True, track_running_stats=True)
)
width Module: 8
module: Sequential(
  (0): Conv2d(8, 16, kernel_size=(3, 3), stride=(2, 2), padding=(1, 1), bias=False)
  (1): BatchNorm2d(16, eps=1e-05, momentum=0.1, affine=True, track_running_stats=True)
  (2): ReLU(inplace=True)
)
width Module: 8
module: Sequential(
  (0): Conv2d(8, 16, kernel_size=(1, 1), stride=(2, 2), bias=False)
  (1): BatchNorm2d(16, eps=1e-05, momentum=0.1, affine=True, track_running_stats=True)
)
width Module: 8
module: Sequential(
  (0): Conv2d(16, 16, kernel_size=(3, 3), stride=(1, 1), padding=(1, 1), bias=False)
  (1): BatchNorm2d(16, eps=1e-05, momentum=0.1, affine=True, track_running_stats=True)
)
width Module: 16
module: Sequential(
  (0): Conv2d(16, 16, kernel_size=(3, 3), stride=(1, 1), padding=(1, 1), bias=False)
  (1): BatchNorm2d(16, eps=1e-05, momentum=0.1, affine=True, track_running_stats=True)
)
width Module: 16
module: AdaptiveAvgPool2d(output_size=(1, 1))
module: Linear(in_features=16, out_features=10, bias=True)
width: 8
module: Conv2d(3, 4, kernel_size=(3, 3), stride=(1, 1), padding=(1, 1), bias=False)
module: BatchNorm2d(4, eps=1e-05, momentum=0.1, affine=True, track_running_stats=True)
module: ReLU(inplace=True)
module: Sequential(
  (0): Conv2d(4, 4, kernel_size=(3, 3), stride=(1, 1), padding=(1, 1), bias=False)
  (1): BatchNorm2d(4, eps=1e-05, momentum=0.1, affine=True, track_running_stats=True)
)
width Module: 4
module: Sequential(
  (0): Conv2d(4, 4, kernel_size=(3, 3), stride=(1, 1), padding=(1, 1), bias=False)
  (1): BatchNorm2d(4, eps=1e-05, momentum=0.1, affine=True, track_running_stats=True)
)
width Module: 4
module: Sequential(
  (0): Conv2d(4, 4, kernel_size=(3, 3), stride=(1, 1), padding=(1, 1), bias=False)
  (1): BatchNorm2d(4, eps=1e-05, momentum=0.1, affine=True, track_running_stats=True)
)
width Module: 4
module: Sequential(
  (0): Conv2d(4, 8, kernel_size=(3, 3), stride=(2, 2), padding=(1, 1), bias=False)
  (1): BatchNorm2d(8, eps=1e-05, momentum=0.1, affine=True, track_running_stats=True)
  (2): ReLU(inplace=True)
)
width Module: 4
conv gefunden
module: Sequential(
  (0): Conv2d(4, 8, kernel_size=(1, 1), stride=(2, 2), bias=False)
  (1): BatchNorm2d(8, eps=1e-05, momentum=0.1, affine=True, track_running_stats=True)
)
width Module: 4
conv gefunden
(i,j): (7, 0
module: Sequential(
  (0): Conv2d(8, 8, kernel_size=(3, 3), stride=(1, 1), padding=(1, 1), bias=False)
  (1): BatchNorm2d(8, eps=1e-05, momentum=0.1, affine=True, track_running_stats=True)
)
width Module: 8
conv gefunden
(i,j): (8, 0
module: Sequential(
  (0): Conv2d(8, 8, kernel_size=(3, 3), stride=(1, 1), padding=(1, 1), bias=False)
  (1): BatchNorm2d(8, eps=1e-05, momentum=0.1, affine=True, track_running_stats=True)
)
width Module: 8
conv gefunden
(i,j): (9, 0
module: Sequential(
  (0): Conv2d(8, 16, kernel_size=(3, 3), stride=(2, 2), padding=(1, 1), bias=False)
  (1): BatchNorm2d(16, eps=1e-05, momentum=0.1, affine=True, track_running_stats=True)
  (2): ReLU(inplace=True)
)
width Module: 8
module: Sequential(
  (0): Conv2d(8, 16, kernel_size=(1, 1), stride=(2, 2), bias=False)
  (1): BatchNorm2d(16, eps=1e-05, momentum=0.1, affine=True, track_running_stats=True)
)
width Module: 8
module: Sequential(
  (0): Conv2d(16, 16, kernel_size=(3, 3), stride=(1, 1), padding=(1, 1), bias=False)
  (1): BatchNorm2d(16, eps=1e-05, momentum=0.1, affine=True, track_running_stats=True)
)
width Module: 16
module: Sequential(
  (0): Conv2d(16, 16, kernel_size=(3, 3), stride=(1, 1), padding=(1, 1), bias=False)
  (1): BatchNorm2d(16, eps=1e-05, momentum=0.1, affine=True, track_running_stats=True)
)
width Module: 16
module: AdaptiveAvgPool2d(output_size=(1, 1))
module: Linear(in_features=16, out_features=10, bias=True)
width: 16
module: Conv2d(3, 4, kernel_size=(3, 3), stride=(1, 1), padding=(1, 1), bias=False)
module: BatchNorm2d(4, eps=1e-05, momentum=0.1, affine=True, track_running_stats=True)
module: ReLU(inplace=True)
module: Sequential(
  (0): Conv2d(4, 4, kernel_size=(3, 3), stride=(1, 1), padding=(1, 1), bias=False)
  (1): BatchNorm2d(4, eps=1e-05, momentum=0.1, affine=True, track_running_stats=True)
)
width Module: 4
module: Sequential(
  (0): Conv2d(4, 4, kernel_size=(3, 3), stride=(1, 1), padding=(1, 1), bias=False)
  (1): BatchNorm2d(4, eps=1e-05, momentum=0.1, affine=True, track_running_stats=True)
)
width Module: 4
module: Sequential(
  (0): Conv2d(4, 4, kernel_size=(3, 3), stride=(1, 1), padding=(1, 1), bias=False)
  (1): BatchNorm2d(4, eps=1e-05, momentum=0.1, affine=True, track_running_stats=True)
)
width Module: 4
module: Sequential(
  (0): Conv2d(4, 8, kernel_size=(3, 3), stride=(2, 2), padding=(1, 1), bias=False)
  (1): BatchNorm2d(8, eps=1e-05, momentum=0.1, affine=True, track_running_stats=True)
  (2): ReLU(inplace=True)
)
width Module: 4
module: Sequential(
  (0): Conv2d(4, 8, kernel_size=(1, 1), stride=(2, 2), bias=False)
  (1): BatchNorm2d(8, eps=1e-05, momentum=0.1, affine=True, track_running_stats=True)
)
width Module: 4
module: Sequential(
  (0): Conv2d(8, 8, kernel_size=(3, 3), stride=(1, 1), padding=(1, 1), bias=False)
  (1): BatchNorm2d(8, eps=1e-05, momentum=0.1, affine=True, track_running_stats=True)
)
width Module: 8
module: Sequential(
  (0): Conv2d(8, 8, kernel_size=(3, 3), stride=(1, 1), padding=(1, 1), bias=False)
  (1): BatchNorm2d(8, eps=1e-05, momentum=0.1, affine=True, track_running_stats=True)
)
width Module: 8
module: Sequential(
  (0): Conv2d(8, 16, kernel_size=(3, 3), stride=(2, 2), padding=(1, 1), bias=False)
  (1): BatchNorm2d(16, eps=1e-05, momentum=0.1, affine=True, track_running_stats=True)
  (2): ReLU(inplace=True)
)
width Module: 8
conv gefunden
module: Sequential(
  (0): Conv2d(8, 16, kernel_size=(1, 1), stride=(2, 2), bias=False)
  (1): BatchNorm2d(16, eps=1e-05, momentum=0.1, affine=True, track_running_stats=True)
)
width Module: 8
conv gefunden
(i,j): (11, 0
module: Sequential(
  (0): Conv2d(16, 16, kernel_size=(3, 3), stride=(1, 1), padding=(1, 1), bias=False)
  (1): BatchNorm2d(16, eps=1e-05, momentum=0.1, affine=True, track_running_stats=True)
)
width Module: 16
conv gefunden
(i,j): (12, 0
module: Sequential(
  (0): Conv2d(16, 16, kernel_size=(3, 3), stride=(1, 1), padding=(1, 1), bias=False)
  (1): BatchNorm2d(16, eps=1e-05, momentum=0.1, affine=True, track_running_stats=True)
)
width Module: 16
conv gefunden
(i,j): (13, 0
module: AdaptiveAvgPool2d(output_size=(1, 1))
module: Linear(in_features=16, out_features=10, bias=True)
stagesI: {4: [(3, 0), (4, 0), (5, 0), (6, 0), (7, 0)], 8: [(8, 0), (9, 0), (10, 0), (11, 0)], 16: [(12, 0), (13, 0), (15, None)]}
stagesO: {4: [(0, None), (3, 0), (4, 0), (5, 0)], 8: [(6, 0), (7, 0), (8, 0), (9, 0)], 16: [(10, 0), (11, 0), (12, 0), (13, 0)]}
Modell Erstellung
N2N(
  (module_list): ModuleList(
    (0): Conv2d(3, 4, kernel_size=(3, 3), stride=(1, 1), padding=(1, 1), bias=False)
    (1): BatchNorm2d(4, eps=1e-05, momentum=0.1, affine=True, track_running_stats=True)
    (2): ReLU(inplace=True)
    (3): Sequential(
      (0): Conv2d(4, 4, kernel_size=(3, 3), stride=(1, 1), padding=(1, 1), bias=False)
      (1): BatchNorm2d(4, eps=1e-05, momentum=0.1, affine=True, track_running_stats=True)
    )
    (4): Sequential(
      (0): Conv2d(4, 4, kernel_size=(3, 3), stride=(1, 1), padding=(1, 1), bias=False)
      (1): BatchNorm2d(4, eps=1e-05, momentum=0.1, affine=True, track_running_stats=True)
    )
    (5): Sequential(
      (0): Conv2d(4, 4, kernel_size=(3, 3), stride=(1, 1), padding=(1, 1), bias=False)
      (1): BatchNorm2d(4, eps=1e-05, momentum=0.1, affine=True, track_running_stats=True)
    )
    (6): Sequential(
      (0): Conv2d(4, 8, kernel_size=(3, 3), stride=(2, 2), padding=(1, 1), bias=False)
      (1): BatchNorm2d(8, eps=1e-05, momentum=0.1, affine=True, track_running_stats=True)
      (2): ReLU(inplace=True)
    )
    (7): Sequential(
      (0): Conv2d(4, 8, kernel_size=(1, 1), stride=(2, 2), bias=False)
      (1): BatchNorm2d(8, eps=1e-05, momentum=0.1, affine=True, track_running_stats=True)
    )
    (8): Sequential(
      (0): Conv2d(8, 8, kernel_size=(3, 3), stride=(1, 1), padding=(1, 1), bias=False)
      (1): BatchNorm2d(8, eps=1e-05, momentum=0.1, affine=True, track_running_stats=True)
    )
    (9): Sequential(
      (0): Conv2d(8, 8, kernel_size=(3, 3), stride=(1, 1), padding=(1, 1), bias=False)
      (1): BatchNorm2d(8, eps=1e-05, momentum=0.1, affine=True, track_running_stats=True)
    )
    (10): Sequential(
      (0): Conv2d(8, 16, kernel_size=(3, 3), stride=(2, 2), padding=(1, 1), bias=False)
      (1): BatchNorm2d(16, eps=1e-05, momentum=0.1, affine=True, track_running_stats=True)
      (2): ReLU(inplace=True)
    )
    (11): Sequential(
      (0): Conv2d(8, 16, kernel_size=(1, 1), stride=(2, 2), bias=False)
      (1): BatchNorm2d(16, eps=1e-05, momentum=0.1, affine=True, track_running_stats=True)
    )
    (12): Sequential(
      (0): Conv2d(16, 16, kernel_size=(3, 3), stride=(1, 1), padding=(1, 1), bias=False)
      (1): BatchNorm2d(16, eps=1e-05, momentum=0.1, affine=True, track_running_stats=True)
    )
    (13): Sequential(
      (0): Conv2d(16, 16, kernel_size=(3, 3), stride=(1, 1), padding=(1, 1), bias=False)
      (1): BatchNorm2d(16, eps=1e-05, momentum=0.1, affine=True, track_running_stats=True)
    )
    (14): AdaptiveAvgPool2d(output_size=(1, 1))
    (15): Linear(in_features=16, out_features=10, bias=True)
  )
  (relu): ReLU(inplace=True)
)
device count: 1
Startepoche: 1
deeper epoch: 0
Epoche: [1/120]; Lr: 0.1
batch Size 256
befor train
/home/jessica.buehler/venv/lib/python3.6/site-packages/torch/cuda/memory.py:234: FutureWarning: torch.cuda.reset_max_memory_allocated now calls torch.cuda.reset_peak_memory_stats, which resets /all/ peak memory stats.
  FutureWarning)
…
Epoch: [60][128/196]	Time 0.144 (0.165)	Data 0.000 (0.008)	Loss 0.8523 (0.8337)	Acc@1 69.531 (70.864)	Acc@5 98.438 (97.750)
Epoch: [60][192/196]	Time 0.196 (0.160)	Data 0.000 (0.006)	Loss 0.7139 (0.8361)	Acc@1 73.047 (70.699)	Acc@5 98.438 (97.761)
after train
n1: 30 for:
wAcc: 56.68431093499854
test acc: 54.74


now deeper1
deep2: False
len param: 9


Stage:  2
size: 4, 4, 3, 3; j: 3
Block: 0
Block: 1
i : 4; block: 1
Conv2d(4, 4, kernel_size=(3, 3), stride=(1, 1), padding=(1, 1), bias=False); i: 0 if 3
BatchNorm2d(4, eps=1e-05, momentum=0.1, affine=True, track_running_stats=True); i: 0
seq: Sequential(
  (0): Conv2d(4, 4, kernel_size=(3, 3), stride=(1, 1), padding=(1, 1), bias=False)
  (1): BatchNorm2d(4, eps=1e-05, momentum=0.1, affine=True, track_running_stats=True)
); i: 4
Block: 2
Block: 3
size: 8, 4, 3, 3; j: 6
Block: 0
Block: 1
i : 8; block: 1
Conv2d(8, 8, kernel_size=(3, 3), stride=(1, 1), padding=(1, 1), bias=False); i: 0 if 3
BatchNorm2d(8, eps=1e-05, momentum=0.1, affine=True, track_running_stats=True); i: 0
seq: Sequential(
  (0): Conv2d(8, 8, kernel_size=(3, 3), stride=(1, 1), padding=(1, 1), bias=False)
  (1): BatchNorm2d(8, eps=1e-05, momentum=0.1, affine=True, track_running_stats=True)
); i: 8
Block: 2
Block: 3
size: 16, 8, 3, 3; j: 10
Block: 0
Block: 1
i : 12; block: 1
Conv2d(16, 16, kernel_size=(3, 3), stride=(1, 1), padding=(1, 1), bias=False); i: 0 if 3
BatchNorm2d(16, eps=1e-05, momentum=0.1, affine=True, track_running_stats=True); i: 0
seq: Sequential(
  (0): Conv2d(16, 16, kernel_size=(3, 3), stride=(1, 1), padding=(1, 1), bias=False)
  (1): BatchNorm2d(16, eps=1e-05, momentum=0.1, affine=True, track_running_stats=True)
); i: 12
Block: 2
Block: 3
archNums: [[1, 1, 1, 1], [2, 1, 1, 1], [2, 1, 1, 1]]
len paramList: 12
N2N(
  (module_list): ModuleList(
    (0): Conv2d(3, 4, kernel_size=(3, 3), stride=(1, 1), padding=(1, 1), bias=False)
    (1): BatchNorm2d(4, eps=1e-05, momentum=0.1, affine=True, track_running_stats=True)
    (2): ReLU(inplace=True)
    (3): Sequential(
      (0): Conv2d(4, 4, kernel_size=(3, 3), stride=(1, 1), padding=(1, 1), bias=False)
      (1): BatchNorm2d(4, eps=1e-05, momentum=0.1, affine=True, track_running_stats=True)
    )
    (4): Sequential(
      (0): Conv2d(4, 4, kernel_size=(3, 3), stride=(1, 1), padding=(1, 1), bias=False)
      (1): BatchNorm2d(4, eps=1e-05, momentum=0.1, affine=True, track_running_stats=True)
    )
    (5): Sequential(
      (0): Conv2d(4, 4, kernel_size=(3, 3), stride=(1, 1), padding=(1, 1), bias=False)
      (1): BatchNorm2d(4, eps=1e-05, momentum=0.1, affine=True, track_running_stats=True)
    )
    (6): Sequential(
      (0): Conv2d(4, 4, kernel_size=(3, 3), stride=(1, 1), padding=(1, 1), bias=False)
      (1): BatchNorm2d(4, eps=1e-05, momentum=0.1, affine=True, track_running_stats=True)
    )
    (7): Sequential(
      (0): Conv2d(4, 8, kernel_size=(3, 3), stride=(2, 2), padding=(1, 1), bias=False)
      (1): BatchNorm2d(8, eps=1e-05, momentum=0.1, affine=True, track_running_stats=True)
      (2): ReLU(inplace=True)
    )
    (8): Sequential(
      (0): Conv2d(4, 8, kernel_size=(1, 1), stride=(2, 2), bias=False)
      (1): BatchNorm2d(8, eps=1e-05, momentum=0.1, affine=True, track_running_stats=True)
    )
    (9): Sequential(
      (0): Conv2d(8, 8, kernel_size=(3, 3), stride=(1, 1), padding=(1, 1), bias=False)
      (1): BatchNorm2d(8, eps=1e-05, momentum=0.1, affine=True, track_running_stats=True)
    )
    (10): Sequential(
      (0): Conv2d(8, 8, kernel_size=(3, 3), stride=(1, 1), padding=(1, 1), bias=False)
      (1): BatchNorm2d(8, eps=1e-05, momentum=0.1, affine=True, track_running_stats=True)
    )
    (11): Sequential(
      (0): Conv2d(8, 8, kernel_size=(3, 3), stride=(1, 1), padding=(1, 1), bias=False)
      (1): BatchNorm2d(8, eps=1e-05, momentum=0.1, affine=True, track_running_stats=True)
    )
    (12): Sequential(
      (0): Conv2d(8, 16, kernel_size=(3, 3), stride=(2, 2), padding=(1, 1), bias=False)
      (1): BatchNorm2d(16, eps=1e-05, momentum=0.1, affine=True, track_running_stats=True)
      (2): ReLU(inplace=True)
    )
    (13): Sequential(
      (0): Conv2d(8, 16, kernel_size=(1, 1), stride=(2, 2), bias=False)
      (1): BatchNorm2d(16, eps=1e-05, momentum=0.1, affine=True, track_running_stats=True)
    )
    (14): Sequential(
      (0): Conv2d(16, 16, kernel_size=(3, 3), stride=(1, 1), padding=(1, 1), bias=False)
      (1): BatchNorm2d(16, eps=1e-05, momentum=0.1, affine=True, track_running_stats=True)
    )
    (15): Sequential(
      (0): Conv2d(16, 16, kernel_size=(3, 3), stride=(1, 1), padding=(1, 1), bias=False)
      (1): BatchNorm2d(16, eps=1e-05, momentum=0.1, affine=True, track_running_stats=True)
    )
    (16): Sequential(
      (0): Conv2d(16, 16, kernel_size=(3, 3), stride=(1, 1), padding=(1, 1), bias=False)
      (1): BatchNorm2d(16, eps=1e-05, momentum=0.1, affine=True, track_running_stats=True)
    )
    (17): AdaptiveAvgPool2d(output_size=(1, 1))
    (18): Linear(in_features=16, out_features=10, bias=True)
  )
  (relu): ReLU(inplace=True)
  (paramList): ParameterList(
      (0): Parameter containing: [torch.cuda.FloatTensor of size 1 (GPU 0)]
      (1): Parameter containing: [torch.cuda.FloatTensor of size 1 (GPU 0)]
      (2): Parameter containing: [torch.cuda.FloatTensor of size 1 (GPU 0)]
      (3): Parameter containing: [torch.cuda.FloatTensor of size 1 (GPU 0)]
…
      (8): Parameter containing: [torch.cuda.FloatTensor of size 1 (GPU 0)]
      (9): Parameter containing: [torch.cuda.FloatTensor of size 1 (GPU 0)]
      (10): Parameter containing: [torch.cuda.FloatTensor of size 1 (GPU 0)]
      (11): Parameter containing: [torch.cuda.FloatTensor of size 1 (GPU 0)]
  )
)
args.layersInBlock: 1
module: Conv2d(3, 4, kernel_size=(3, 3), stride=(1, 1), padding=(1, 1), bias=False)
Size of Weight: torch.Size([4, 3, 3, 3])
module: BatchNorm2d(4, eps=1e-05, momentum=0.1, affine=True, track_running_stats=True)
Size of Weight: torch.Size([4])
module: ReLU(inplace=True)
module: Sequential(
  (0): Conv2d(4, 4, kernel_size=(3, 3), stride=(1, 1), padding=(1, 1), bias=False)
  (1): BatchNorm2d(4, eps=1e-05, momentum=0.1, affine=True, track_running_stats=True)
)
Size of Weight: torch.Size([4, 4, 3, 3])
Size of Weight: torch.Size([4])
module: Sequential(
  (0): Conv2d(4, 4, kernel_size=(3, 3), stride=(1, 1), padding=(1, 1), bias=False)
  (1): BatchNorm2d(4, eps=1e-05, momentum=0.1, affine=True, track_running_stats=True)
)
Size of Weight: torch.Size([4, 4, 3, 3])
Size of Weight: torch.Size([4])
module: Sequential(
  (0): Conv2d(4, 4, kernel_size=(3, 3), stride=(1, 1), padding=(1, 1), bias=False)
  (1): BatchNorm2d(4, eps=1e-05, momentum=0.1, affine=True, track_running_stats=True)
)
Size of Weight: torch.Size([4, 4, 3, 3])
Size of Weight: torch.Size([4])
module: Sequential(
  (0): Conv2d(4, 4, kernel_size=(3, 3), stride=(1, 1), padding=(1, 1), bias=False)
  (1): BatchNorm2d(4, eps=1e-05, momentum=0.1, affine=True, track_running_stats=True)
)
Size of Weight: torch.Size([4, 4, 3, 3])
Size of Weight: torch.Size([4])
module: Sequential(
  (0): Conv2d(4, 8, kernel_size=(3, 3), stride=(2, 2), padding=(1, 1), bias=False)
  (1): BatchNorm2d(8, eps=1e-05, momentum=0.1, affine=True, track_running_stats=True)
  (2): ReLU(inplace=True)
)
Size of Weight: torch.Size([8, 4, 3, 3])
Size of Weight: torch.Size([8])
module: Sequential(
  (0): Conv2d(4, 8, kernel_size=(1, 1), stride=(2, 2), bias=False)
  (1): BatchNorm2d(8, eps=1e-05, momentum=0.1, affine=True, track_running_stats=True)
)
Size of Weight: torch.Size([8, 4, 1, 1])
Size of Weight: torch.Size([8])
Sequential: [Conv2d(4, 8, kernel_size=(1, 1), stride=(2, 2)), BatchNorm2d(8, eps=1e-05, momentum=0.1, affine=True, track_running_stats=True)]
module: Sequential(
  (0): Conv2d(8, 8, kernel_size=(3, 3), stride=(1, 1), padding=(1, 1), bias=False)
  (1): BatchNorm2d(8, eps=1e-05, momentum=0.1, affine=True, track_running_stats=True)
)
Size of Weight: torch.Size([8, 8, 3, 3])
Size of Weight: torch.Size([8])
module: Sequential(
  (0): Conv2d(8, 8, kernel_size=(3, 3), stride=(1, 1), padding=(1, 1), bias=False)
  (1): BatchNorm2d(8, eps=1e-05, momentum=0.1, affine=True, track_running_stats=True)
)
Size of Weight: torch.Size([8, 8, 3, 3])
Size of Weight: torch.Size([8])
module: Sequential(
  (0): Conv2d(8, 8, kernel_size=(3, 3), stride=(1, 1), padding=(1, 1), bias=False)
  (1): BatchNorm2d(8, eps=1e-05, momentum=0.1, affine=True, track_running_stats=True)
)
Size of Weight: torch.Size([8, 8, 3, 3])
Size of Weight: torch.Size([8])
module: Sequential(
  (0): Conv2d(8, 16, kernel_size=(3, 3), stride=(2, 2), padding=(1, 1), bias=False)
  (1): BatchNorm2d(16, eps=1e-05, momentum=0.1, affine=True, track_running_stats=True)
  (2): ReLU(inplace=True)
)
Size of Weight: torch.Size([16, 8, 3, 3])
Size of Weight: torch.Size([16])
module: Sequential(
  (0): Conv2d(8, 16, kernel_size=(1, 1), stride=(2, 2), bias=False)
  (1): BatchNorm2d(16, eps=1e-05, momentum=0.1, affine=True, track_running_stats=True)
)
Size of Weight: torch.Size([16, 8, 1, 1])
Size of Weight: torch.Size([16])
module: Sequential(
  (0): Conv2d(16, 16, kernel_size=(3, 3), stride=(1, 1), padding=(1, 1), bias=False)
  (1): BatchNorm2d(16, eps=1e-05, momentum=0.1, affine=True, track_running_stats=True)
)
Size of Weight: torch.Size([16, 16, 3, 3])
Size of Weight: torch.Size([16])
module: Sequential(
  (0): Conv2d(16, 16, kernel_size=(3, 3), stride=(1, 1), padding=(1, 1), bias=False)
  (1): BatchNorm2d(16, eps=1e-05, momentum=0.1, affine=True, track_running_stats=True)
)
Size of Weight: torch.Size([16, 16, 3, 3])
Size of Weight: torch.Size([16])
module: Sequential(
  (0): Conv2d(16, 16, kernel_size=(3, 3), stride=(1, 1), padding=(1, 1), bias=False)
  (1): BatchNorm2d(16, eps=1e-05, momentum=0.1, affine=True, track_running_stats=True)
)
Size of Weight: torch.Size([16, 16, 3, 3])
Size of Weight: torch.Size([16])
module: AdaptiveAvgPool2d(output_size=(1, 1))
module: Linear(in_features=16, out_features=10, bias=True)
Size of Weight: torch.Size([10, 16])
N2N(
  (module_list): ModuleList(
    (0): Conv2d(3, 4, kernel_size=(3, 3), stride=(1, 1), padding=(1, 1))
    (1): BatchNorm2d(4, eps=1e-05, momentum=0.1, affine=True, track_running_stats=True)
    (2): ReLU(inplace=True)
    (3): Sequential(
      (0): Conv2d(4, 4, kernel_size=(3, 3), stride=(1, 1), padding=(1, 1))
      (1): BatchNorm2d(4, eps=1e-05, momentum=0.1, affine=True, track_running_stats=True)
    )
    (4): Sequential(
      (0): Conv2d(4, 4, kernel_size=(3, 3), stride=(1, 1), padding=(1, 1))
      (1): BatchNorm2d(4, eps=1e-05, momentum=0.1, affine=True, track_running_stats=True)
    )
    (5): Sequential(
      (0): Conv2d(4, 4, kernel_size=(3, 3), stride=(1, 1), padding=(1, 1))
      (1): BatchNorm2d(4, eps=1e-05, momentum=0.1, affine=True, track_running_stats=True)
    )
    (6): Sequential(
      (0): Conv2d(4, 4, kernel_size=(3, 3), stride=(1, 1), padding=(1, 1))
      (1): BatchNorm2d(4, eps=1e-05, momentum=0.1, affine=True, track_running_stats=True)
    )
    (7): Sequential(
      (0): Conv2d(4, 8, kernel_size=(3, 3), stride=(2, 2), padding=(1, 1))
      (1): BatchNorm2d(8, eps=1e-05, momentum=0.1, affine=True, track_running_stats=True)
      (2): ReLU(inplace=True)
    )
    (8): Sequential(
      (0): Conv2d(4, 8, kernel_size=(1, 1), stride=(2, 2))
      (1): BatchNorm2d(8, eps=1e-05, momentum=0.1, affine=True, track_running_stats=True)
    )
    (9): Sequential(
      (0): Conv2d(8, 8, kernel_size=(3, 3), stride=(1, 1), padding=(1, 1))
      (1): BatchNorm2d(8, eps=1e-05, momentum=0.1, affine=True, track_running_stats=True)
    )
    (10): Sequential(
      (0): Conv2d(8, 8, kernel_size=(3, 3), stride=(1, 1), padding=(1, 1))
      (1): BatchNorm2d(8, eps=1e-05, momentum=0.1, affine=True, track_running_stats=True)
    )
    (11): Sequential(
      (0): Conv2d(8, 8, kernel_size=(3, 3), stride=(1, 1), padding=(1, 1))
      (1): BatchNorm2d(8, eps=1e-05, momentum=0.1, affine=True, track_running_stats=True)
    )
    (12): Sequential(
      (0): Conv2d(8, 16, kernel_size=(3, 3), stride=(2, 2), padding=(1, 1))
      (1): BatchNorm2d(16, eps=1e-05, momentum=0.1, affine=True, track_running_stats=True)
      (2): ReLU(inplace=True)
    )
    (13): Sequential(
      (0): Conv2d(8, 16, kernel_size=(1, 1), stride=(2, 2))
      (1): BatchNorm2d(16, eps=1e-05, momentum=0.1, affine=True, track_running_stats=True)
    )
    (14): Sequential(
      (0): Conv2d(16, 16, kernel_size=(3, 3), stride=(1, 1), padding=(1, 1))
      (1): BatchNorm2d(16, eps=1e-05, momentum=0.1, affine=True, track_running_stats=True)
    )
    (15): Sequential(
      (0): Conv2d(16, 16, kernel_size=(3, 3), stride=(1, 1), padding=(1, 1))
      (1): BatchNorm2d(16, eps=1e-05, momentum=0.1, affine=True, track_running_stats=True)
    )
    (16): Sequential(
      (0): Conv2d(16, 16, kernel_size=(3, 3), stride=(1, 1), padding=(1, 1))
      (1): BatchNorm2d(16, eps=1e-05, momentum=0.1, affine=True, track_running_stats=True)
    )
    (17): AdaptiveAvgPool2d(output_size=(1, 1))
    (18): Linear(in_features=16, out_features=10, bias=True)
  )
  (relu): ReLU(inplace=True)
  (paramList): ParameterList(
      (0): Parameter containing: [torch.cuda.FloatTensor of size 1 (GPU 0)]
      (1): Parameter containing: [torch.cuda.FloatTensor of size 1 (GPU 0)]
      (2): Parameter containing: [torch.cuda.FloatTensor of size 1 (GPU 0)]
      (3): Parameter containing: [torch.cuda.FloatTensor of size 1 (GPU 0)]
…
