…
 moduleBn: BatchNorm2d(32, eps=1e-05, momentum=0.1, affine=True, track_running_stats=True); i: 1; indexL: 12
Module= Conv2d(64, 32, kernel_size=(3, 3), stride=(1, 1), padding=(1, 1)); i: 0 indexL: 13
shape new w1: (64, 64, 3, 3)
shape new w2: (32, 64, 3, 3); old w2: (32, 32, 3, 3)
Batchnorm1
IndexL: 13
Module= Conv2d(64, 32, kernel_size=(3, 3), stride=(1, 1), padding=(1, 1)); i: 0 indexL: 13
 moduleBn: BatchNorm2d(32, eps=1e-05, momentum=0.1, affine=True, track_running_stats=True); i: 1; indexL: 13
shape new w1: (64, 64, 3, 3)
shape new w2: (10, 64); old w2: (10, 32)
Batchnorm1
self: N2N(
  (module_list): ModuleList(
    (0): Conv2d(3, 16, kernel_size=(3, 3), stride=(1, 1), padding=(1, 1))
    (1): BatchNorm2d(16, eps=1e-05, momentum=0.1, affine=True, track_running_stats=True)
    (2): ReLU(inplace=True)
    (3): Sequential(
      (0): Conv2d(16, 16, kernel_size=(3, 3), stride=(1, 1), padding=(1, 1))
      (1): BatchNorm2d(16, eps=1e-05, momentum=0.1, affine=True, track_running_stats=True)
    )
    (4): Sequential(
      (0): Conv2d(16, 16, kernel_size=(3, 3), stride=(1, 1), padding=(1, 1))
      (1): BatchNorm2d(16, eps=1e-05, momentum=0.1, affine=True, track_running_stats=True)
    )
    (5): Sequential(
      (0): Conv2d(16, 16, kernel_size=(3, 3), stride=(1, 1), padding=(1, 1))
      (1): BatchNorm2d(16, eps=1e-05, momentum=0.1, affine=True, track_running_stats=True)
    )
    (6): Sequential(
      (0): Conv2d(16, 32, kernel_size=(3, 3), stride=(2, 2), padding=(1, 1))
      (1): BatchNorm2d(32, eps=1e-05, momentum=0.1, affine=True, track_running_stats=True)
      (2): ReLU(inplace=True)
    )
    (7): Sequential(
      (0): Conv2d(16, 32, kernel_size=(1, 1), stride=(2, 2))
      (1): BatchNorm2d(32, eps=1e-05, momentum=0.1, affine=True, track_running_stats=True)
    )
    (8): Sequential(
      (0): Conv2d(32, 32, kernel_size=(3, 3), stride=(1, 1), padding=(1, 1))
      (1): BatchNorm2d(32, eps=1e-05, momentum=0.1, affine=True, track_running_stats=True)
    )
    (9): Sequential(
      (0): Conv2d(32, 32, kernel_size=(3, 3), stride=(1, 1), padding=(1, 1))
      (1): BatchNorm2d(32, eps=1e-05, momentum=0.1, affine=True, track_running_stats=True)
    )
    (10): Sequential(
      (0): Conv2d(32, 64, kernel_size=(3, 3), stride=(2, 2), padding=(1, 1))
      (1): BatchNorm2d(64, eps=1e-05, momentum=0.1, affine=True, track_running_stats=True)
      (2): ReLU(inplace=True)
    )
    (11): Sequential(
      (0): Conv2d(32, 64, kernel_size=(1, 1), stride=(2, 2))
      (1): BatchNorm2d(64, eps=1e-05, momentum=0.1, affine=True, track_running_stats=True)
    )
    (12): Sequential(
      (0): Conv2d(64, 64, kernel_size=(3, 3), stride=(1, 1), padding=(1, 1))
      (1): BatchNorm2d(64, eps=1e-05, momentum=0.1, affine=True, track_running_stats=True)
    )
    (13): Sequential(
      (0): Conv2d(64, 64, kernel_size=(3, 3), stride=(1, 1), padding=(1, 1))
      (1): BatchNorm2d(64, eps=1e-05, momentum=0.1, affine=True, track_running_stats=True)
    )
    (14): AdaptiveAvgPool2d(output_size=(1, 1))
    (15): Linear(in_features=64, out_features=10, bias=True)
  )
  (relu): ReLU(inplace=True)
)
module: Conv2d(3, 16, kernel_size=(3, 3), stride=(1, 1), padding=(1, 1))
Size of Weight: torch.Size([16, 3, 3, 3])
module: BatchNorm2d(16, eps=1e-05, momentum=0.1, affine=True, track_running_stats=True)
Size of Weight: torch.Size([16])
module: ReLU(inplace=True)
module: Sequential(
  (0): Conv2d(16, 16, kernel_size=(3, 3), stride=(1, 1), padding=(1, 1))
  (1): BatchNorm2d(16, eps=1e-05, momentum=0.1, affine=True, track_running_stats=True)
)
Size of Weight: torch.Size([16, 16, 3, 3])
Size of Weight: torch.Size([16])
module: Sequential(
  (0): Conv2d(16, 16, kernel_size=(3, 3), stride=(1, 1), padding=(1, 1))
  (1): BatchNorm2d(16, eps=1e-05, momentum=0.1, affine=True, track_running_stats=True)
)
Size of Weight: torch.Size([16, 16, 3, 3])
Size of Weight: torch.Size([16])
module: Sequential(
  (0): Conv2d(16, 16, kernel_size=(3, 3), stride=(1, 1), padding=(1, 1))
  (1): BatchNorm2d(16, eps=1e-05, momentum=0.1, affine=True, track_running_stats=True)
)
Size of Weight: torch.Size([16, 16, 3, 3])
Size of Weight: torch.Size([16])
module: Sequential(
  (0): Conv2d(16, 32, kernel_size=(3, 3), stride=(2, 2), padding=(1, 1))
  (1): BatchNorm2d(32, eps=1e-05, momentum=0.1, affine=True, track_running_stats=True)
  (2): ReLU(inplace=True)
)
Size of Weight: torch.Size([32, 16, 3, 3])
Size of Weight: torch.Size([32])
module: Sequential(
  (0): Conv2d(16, 32, kernel_size=(1, 1), stride=(2, 2))
  (1): BatchNorm2d(32, eps=1e-05, momentum=0.1, affine=True, track_running_stats=True)
)
Size of Weight: torch.Size([32, 16, 1, 1])
Size of Weight: torch.Size([32])
module: Sequential(
  (0): Conv2d(32, 32, kernel_size=(3, 3), stride=(1, 1), padding=(1, 1))
  (1): BatchNorm2d(32, eps=1e-05, momentum=0.1, affine=True, track_running_stats=True)
)
Size of Weight: torch.Size([32, 32, 3, 3])
Size of Weight: torch.Size([32])
Sequential: [Conv2d(32, 32, kernel_size=(3, 3), stride=(1, 1), padding=(1, 1)), BatchNorm2d(32, eps=1e-05, momentum=0.1, affine=True, track_running_stats=True)]
module: Sequential(
  (0): Conv2d(32, 32, kernel_size=(3, 3), stride=(1, 1), padding=(1, 1))
  (1): BatchNorm2d(32, eps=1e-05, momentum=0.1, affine=True, track_running_stats=True)
)
Size of Weight: torch.Size([32, 32, 3, 3])
Size of Weight: torch.Size([32])
module: Sequential(
  (0): Conv2d(32, 64, kernel_size=(3, 3), stride=(2, 2), padding=(1, 1))
  (1): BatchNorm2d(64, eps=1e-05, momentum=0.1, affine=True, track_running_stats=True)
  (2): ReLU(inplace=True)
)
Size of Weight: torch.Size([64, 32, 3, 3])
Size of Weight: torch.Size([64])
module: Sequential(
  (0): Conv2d(32, 64, kernel_size=(1, 1), stride=(2, 2))
  (1): BatchNorm2d(64, eps=1e-05, momentum=0.1, affine=True, track_running_stats=True)
)
Size of Weight: torch.Size([64, 32, 1, 1])
Size of Weight: torch.Size([64])
module: Sequential(
  (0): Conv2d(64, 64, kernel_size=(3, 3), stride=(1, 1), padding=(1, 1))
  (1): BatchNorm2d(64, eps=1e-05, momentum=0.1, affine=True, track_running_stats=True)
)
Size of Weight: torch.Size([64, 64, 3, 3])
Size of Weight: torch.Size([64])
module: Sequential(
  (0): Conv2d(64, 64, kernel_size=(3, 3), stride=(1, 1), padding=(1, 1))
  (1): BatchNorm2d(64, eps=1e-05, momentum=0.1, affine=True, track_running_stats=True)
)
Size of Weight: torch.Size([64, 64, 3, 3])
Size of Weight: torch.Size([64])
module: AdaptiveAvgPool2d(output_size=(1, 1))
module: Linear(in_features=64, out_features=10, bias=True)
Size of Weight: torch.Size([10, 64])
time for n2n: 0.09151148796081543
Epoche: [122/240]; Lr: 0.1
batch Size 256
befor train
Epoch: [122][0/196]	Time 0.164 (0.164)	Data 0.507 (0.507)	Loss 1.6799 (1.6799)	Acc@1 44.141 (44.141)	Acc@5 89.453 (89.453)
…
