…
Epoch: [121][64/196]	Time 0.123 (0.193)	Data 0.000 (0.008)	Loss 0.5116 (0.5379)	Acc@1 81.250 (81.460)	Acc@5 100.000 (99.026)
Epoch: [121][128/196]	Time 0.190 (0.181)	Data 0.000 (0.004)	Loss 0.5684 (0.5337)	Acc@1 78.125 (81.477)	Acc@5 98.438 (99.061)
Epoch: [121][192/196]	Time 0.116 (0.182)	Data 0.000 (0.003)	Loss 0.5494 (0.5343)	Acc@1 80.078 (81.501)	Acc@5 100.000 (99.091)
after train
test acc: 79.51


now deeper1
deep2: True
len param: 12
Block: 0
Block: 1
Block: 2
Block: 3
Block: 4
Block: 0
Block: 1
Block: 2
Block: 3
Block: 4
Block: 0
Block: 1
Block: 2
Block: 3
Block: 4
archNums: [[1, 1, 1, 1, 1], [2, 1, 1, 1, 1], [2, 1, 1, 1, 1]]
len paramList: 15
N2N(
  (module_list): ModuleList(
    (0): Conv2d(3, 4, kernel_size=(3, 3), stride=(1, 1), padding=(1, 1))
    (1): BatchNorm2d(4, eps=1e-05, momentum=0.1, affine=True, track_running_stats=True)
    (2): ReLU(inplace=True)
    (3): Sequential(
      (0): Conv2d(4, 4, kernel_size=(3, 3), stride=(1, 1), padding=(1, 1))
      (1): BatchNorm2d(4, eps=1e-05, momentum=0.1, affine=True, track_running_stats=True)
      (2): ReLU(inplace=True)
      (3): Conv2d(4, 4, kernel_size=(3, 3), stride=(1, 1), padding=(1, 1))
      (4): BatchNorm2d(4, eps=1e-05, momentum=0.1, affine=True, track_running_stats=True)
    )
    (4): Sequential(
      (0): Conv2d(4, 4, kernel_size=(3, 3), stride=(1, 1), padding=(1, 1), bias=False)
      (1): BatchNorm2d(4, eps=1e-05, momentum=0.1, affine=True, track_running_stats=True)
    )
    (5): Sequential(
      (0): Conv2d(4, 4, kernel_size=(3, 3), stride=(1, 1), padding=(1, 1))
      (1): BatchNorm2d(4, eps=1e-05, momentum=0.1, affine=True, track_running_stats=True)
      (2): ReLU(inplace=True)
      (3): Conv2d(4, 4, kernel_size=(3, 3), stride=(1, 1), padding=(1, 1))
      (4): BatchNorm2d(4, eps=1e-05, momentum=0.1, affine=True, track_running_stats=True)
    )
    (6): Sequential(
      (0): Conv2d(4, 4, kernel_size=(3, 3), stride=(1, 1), padding=(1, 1))
      (1): BatchNorm2d(4, eps=1e-05, momentum=0.1, affine=True, track_running_stats=True)
      (2): ReLU(inplace=True)
      (3): Conv2d(4, 4, kernel_size=(3, 3), stride=(1, 1), padding=(1, 1))
      (4): BatchNorm2d(4, eps=1e-05, momentum=0.1, affine=True, track_running_stats=True)
    )
    (7): Sequential(
      (0): Conv2d(4, 4, kernel_size=(3, 3), stride=(1, 1), padding=(1, 1))
      (1): BatchNorm2d(4, eps=1e-05, momentum=0.1, affine=True, track_running_stats=True)
      (2): ReLU(inplace=True)
      (3): Conv2d(4, 4, kernel_size=(3, 3), stride=(1, 1), padding=(1, 1))
      (4): BatchNorm2d(4, eps=1e-05, momentum=0.1, affine=True, track_running_stats=True)
    )
    (8): Sequential(
      (0): Conv2d(4, 8, kernel_size=(3, 3), stride=(2, 2), padding=(1, 1))
      (1): BatchNorm2d(8, eps=1e-05, momentum=0.1, affine=True, track_running_stats=True)
      (2): ReLU(inplace=True)
      (3): Conv2d(8, 8, kernel_size=(3, 3), stride=(1, 1), padding=(1, 1))
      (4): BatchNorm2d(8, eps=1e-05, momentum=0.1, affine=True, track_running_stats=True)
      (5): ReLU(inplace=True)
    )
    (9): Sequential(
      (0): Conv2d(4, 8, kernel_size=(1, 1), stride=(2, 2))
      (1): BatchNorm2d(8, eps=1e-05, momentum=0.1, affine=True, track_running_stats=True)
    )
    (10): Sequential(
      (0): Conv2d(8, 8, kernel_size=(3, 3), stride=(1, 1), padding=(1, 1), bias=False)
      (1): BatchNorm2d(8, eps=1e-05, momentum=0.1, affine=True, track_running_stats=True)
    )
    (11): Sequential(
      (0): Conv2d(8, 8, kernel_size=(3, 3), stride=(1, 1), padding=(1, 1))
      (1): BatchNorm2d(8, eps=1e-05, momentum=0.1, affine=True, track_running_stats=True)
      (2): ReLU(inplace=True)
      (3): Conv2d(8, 8, kernel_size=(3, 3), stride=(1, 1), padding=(1, 1))
      (4): BatchNorm2d(8, eps=1e-05, momentum=0.1, affine=True, track_running_stats=True)
    )
    (12): Sequential(
      (0): Conv2d(8, 8, kernel_size=(3, 3), stride=(1, 1), padding=(1, 1))
      (1): BatchNorm2d(8, eps=1e-05, momentum=0.1, affine=True, track_running_stats=True)
      (2): ReLU(inplace=True)
      (3): Conv2d(8, 8, kernel_size=(3, 3), stride=(1, 1), padding=(1, 1))
      (4): BatchNorm2d(8, eps=1e-05, momentum=0.1, affine=True, track_running_stats=True)
    )
    (13): Sequential(
      (0): Conv2d(8, 8, kernel_size=(3, 3), stride=(1, 1), padding=(1, 1))
      (1): BatchNorm2d(8, eps=1e-05, momentum=0.1, affine=True, track_running_stats=True)
      (2): ReLU(inplace=True)
      (3): Conv2d(8, 8, kernel_size=(3, 3), stride=(1, 1), padding=(1, 1))
      (4): BatchNorm2d(8, eps=1e-05, momentum=0.1, affine=True, track_running_stats=True)
    )
    (14): Sequential(
      (0): Conv2d(8, 16, kernel_size=(3, 3), stride=(2, 2), padding=(1, 1))
      (1): BatchNorm2d(16, eps=1e-05, momentum=0.1, affine=True, track_running_stats=True)
      (2): ReLU(inplace=True)
      (3): Conv2d(16, 16, kernel_size=(3, 3), stride=(1, 1), padding=(1, 1))
      (4): BatchNorm2d(16, eps=1e-05, momentum=0.1, affine=True, track_running_stats=True)
      (5): ReLU(inplace=True)
    )
    (15): Sequential(
      (0): Conv2d(8, 16, kernel_size=(1, 1), stride=(2, 2))
      (1): BatchNorm2d(16, eps=1e-05, momentum=0.1, affine=True, track_running_stats=True)
    )
    (16): Sequential(
      (0): Conv2d(16, 16, kernel_size=(3, 3), stride=(1, 1), padding=(1, 1), bias=False)
      (1): BatchNorm2d(16, eps=1e-05, momentum=0.1, affine=True, track_running_stats=True)
    )
    (17): Sequential(
      (0): Conv2d(16, 16, kernel_size=(3, 3), stride=(1, 1), padding=(1, 1))
      (1): BatchNorm2d(16, eps=1e-05, momentum=0.1, affine=True, track_running_stats=True)
      (2): ReLU(inplace=True)
      (3): Conv2d(16, 16, kernel_size=(3, 3), stride=(1, 1), padding=(1, 1))
      (4): BatchNorm2d(16, eps=1e-05, momentum=0.1, affine=True, track_running_stats=True)
    )
    (18): Sequential(
      (0): Conv2d(16, 16, kernel_size=(3, 3), stride=(1, 1), padding=(1, 1))
      (1): BatchNorm2d(16, eps=1e-05, momentum=0.1, affine=True, track_running_stats=True)
      (2): ReLU(inplace=True)
      (3): Conv2d(16, 16, kernel_size=(3, 3), stride=(1, 1), padding=(1, 1))
      (4): BatchNorm2d(16, eps=1e-05, momentum=0.1, affine=True, track_running_stats=True)
    )
    (19): Sequential(
      (0): Conv2d(16, 16, kernel_size=(3, 3), stride=(1, 1), padding=(1, 1))
      (1): BatchNorm2d(16, eps=1e-05, momentum=0.1, affine=True, track_running_stats=True)
      (2): ReLU(inplace=True)
      (3): Conv2d(16, 16, kernel_size=(3, 3), stride=(1, 1), padding=(1, 1))
      (4): BatchNorm2d(16, eps=1e-05, momentum=0.1, affine=True, track_running_stats=True)
    )
    (20): AdaptiveAvgPool2d(output_size=(1, 1))
    (21): Linear(in_features=16, out_features=10, bias=True)
  )
  (relu): ReLU(inplace=True)
  (paramList): ParameterList(
      (0): Parameter containing: [torch.cuda.FloatTensor of size 1 (GPU 0)]
      (1): Parameter containing: [torch.cuda.FloatTensor of size 1 (GPU 0)]
      (2): Parameter containing: [torch.cuda.FloatTensor of size 1 (GPU 0)]
      (3): Parameter containing: [torch.cuda.FloatTensor of size 1 (GPU 0)]
…
      (11): Parameter containing: [torch.cuda.FloatTensor of size 1 (GPU 0)]
      (12): Parameter containing: [torch.cuda.FloatTensor of size 1 (GPU 0)]
      (13): Parameter containing: [torch.cuda.FloatTensor of size 1 (GPU 0)]
      (14): Parameter containing: [torch.cuda.FloatTensor of size 1 (GPU 0)]
  )
)
args.layersInBlock: 1
module: Conv2d(3, 4, kernel_size=(3, 3), stride=(1, 1), padding=(1, 1))
Size of Weight: torch.Size([4, 3, 3, 3])
module: BatchNorm2d(4, eps=1e-05, momentum=0.1, affine=True, track_running_stats=True)
Size of Weight: torch.Size([4])
module: ReLU(inplace=True)
module: Sequential(
  (0): Conv2d(4, 4, kernel_size=(3, 3), stride=(1, 1), padding=(1, 1))
  (1): BatchNorm2d(4, eps=1e-05, momentum=0.1, affine=True, track_running_stats=True)
  (2): ReLU(inplace=True)
  (3): Conv2d(4, 4, kernel_size=(3, 3), stride=(1, 1), padding=(1, 1))
  (4): BatchNorm2d(4, eps=1e-05, momentum=0.1, affine=True, track_running_stats=True)
)
Size of Weight: torch.Size([4, 4, 3, 3])
Size of Weight: torch.Size([4])
Size of Weight: torch.Size([4, 4, 3, 3])
Size of Weight: torch.Size([4])
module: Sequential(
  (0): Conv2d(4, 4, kernel_size=(3, 3), stride=(1, 1), padding=(1, 1), bias=False)
  (1): BatchNorm2d(4, eps=1e-05, momentum=0.1, affine=True, track_running_stats=True)
)
Size of Weight: torch.Size([4, 4, 3, 3])
Size of Weight: torch.Size([4])
module: Sequential(
  (0): Conv2d(4, 4, kernel_size=(3, 3), stride=(1, 1), padding=(1, 1))
  (1): BatchNorm2d(4, eps=1e-05, momentum=0.1, affine=True, track_running_stats=True)
  (2): ReLU(inplace=True)
  (3): Conv2d(4, 4, kernel_size=(3, 3), stride=(1, 1), padding=(1, 1))
  (4): BatchNorm2d(4, eps=1e-05, momentum=0.1, affine=True, track_running_stats=True)
)
Size of Weight: torch.Size([4, 4, 3, 3])
Size of Weight: torch.Size([4])
Size of Weight: torch.Size([4, 4, 3, 3])
Size of Weight: torch.Size([4])
module: Sequential(
  (0): Conv2d(4, 4, kernel_size=(3, 3), stride=(1, 1), padding=(1, 1))
  (1): BatchNorm2d(4, eps=1e-05, momentum=0.1, affine=True, track_running_stats=True)
  (2): ReLU(inplace=True)
  (3): Conv2d(4, 4, kernel_size=(3, 3), stride=(1, 1), padding=(1, 1))
  (4): BatchNorm2d(4, eps=1e-05, momentum=0.1, affine=True, track_running_stats=True)
)
Size of Weight: torch.Size([4, 4, 3, 3])
Size of Weight: torch.Size([4])
Size of Weight: torch.Size([4, 4, 3, 3])
Size of Weight: torch.Size([4])
module: Sequential(
  (0): Conv2d(4, 4, kernel_size=(3, 3), stride=(1, 1), padding=(1, 1))
  (1): BatchNorm2d(4, eps=1e-05, momentum=0.1, affine=True, track_running_stats=True)
  (2): ReLU(inplace=True)
  (3): Conv2d(4, 4, kernel_size=(3, 3), stride=(1, 1), padding=(1, 1))
  (4): BatchNorm2d(4, eps=1e-05, momentum=0.1, affine=True, track_running_stats=True)
)
Size of Weight: torch.Size([4, 4, 3, 3])
Size of Weight: torch.Size([4])
Size of Weight: torch.Size([4, 4, 3, 3])
Size of Weight: torch.Size([4])
module: Sequential(
  (0): Conv2d(4, 8, kernel_size=(3, 3), stride=(2, 2), padding=(1, 1))
  (1): BatchNorm2d(8, eps=1e-05, momentum=0.1, affine=True, track_running_stats=True)
  (2): ReLU(inplace=True)
  (3): Conv2d(8, 8, kernel_size=(3, 3), stride=(1, 1), padding=(1, 1))
  (4): BatchNorm2d(8, eps=1e-05, momentum=0.1, affine=True, track_running_stats=True)
  (5): ReLU(inplace=True)
)
Size of Weight: torch.Size([8, 4, 3, 3])
Size of Weight: torch.Size([8])
Size of Weight: torch.Size([8, 8, 3, 3])
Size of Weight: torch.Size([8])
Sequential: [Conv2d(4, 8, kernel_size=(3, 3), stride=(2, 2), padding=(1, 1)), BatchNorm2d(8, eps=1e-05, momentum=0.1, affine=True, track_running_stats=True), ReLU(inplace=True), Conv2d(8, 8, kernel_size=(3, 3), stride=(1, 1), padding=(1, 1)), BatchNorm2d(8, eps=1e-05, momentum=0.1, affine=True, track_running_stats=True), ReLU(inplace=True)]
module: Sequential(
  (0): Conv2d(4, 8, kernel_size=(1, 1), stride=(2, 2))
  (1): BatchNorm2d(8, eps=1e-05, momentum=0.1, affine=True, track_running_stats=True)
)
Size of Weight: torch.Size([8, 4, 1, 1])
Size of Weight: torch.Size([8])
module: Sequential(
  (0): Conv2d(8, 8, kernel_size=(3, 3), stride=(1, 1), padding=(1, 1), bias=False)
  (1): BatchNorm2d(8, eps=1e-05, momentum=0.1, affine=True, track_running_stats=True)
)
Size of Weight: torch.Size([8, 8, 3, 3])
Size of Weight: torch.Size([8])
module: Sequential(
  (0): Conv2d(8, 8, kernel_size=(3, 3), stride=(1, 1), padding=(1, 1))
  (1): BatchNorm2d(8, eps=1e-05, momentum=0.1, affine=True, track_running_stats=True)
  (2): ReLU(inplace=True)
  (3): Conv2d(8, 8, kernel_size=(3, 3), stride=(1, 1), padding=(1, 1))
  (4): BatchNorm2d(8, eps=1e-05, momentum=0.1, affine=True, track_running_stats=True)
)
Size of Weight: torch.Size([8, 8, 3, 3])
Size of Weight: torch.Size([8])
Size of Weight: torch.Size([8, 8, 3, 3])
Size of Weight: torch.Size([8])
module: Sequential(
  (0): Conv2d(8, 8, kernel_size=(3, 3), stride=(1, 1), padding=(1, 1))
  (1): BatchNorm2d(8, eps=1e-05, momentum=0.1, affine=True, track_running_stats=True)
  (2): ReLU(inplace=True)
  (3): Conv2d(8, 8, kernel_size=(3, 3), stride=(1, 1), padding=(1, 1))
  (4): BatchNorm2d(8, eps=1e-05, momentum=0.1, affine=True, track_running_stats=True)
)
Size of Weight: torch.Size([8, 8, 3, 3])
Size of Weight: torch.Size([8])
Size of Weight: torch.Size([8, 8, 3, 3])
Size of Weight: torch.Size([8])
module: Sequential(
  (0): Conv2d(8, 8, kernel_size=(3, 3), stride=(1, 1), padding=(1, 1))
  (1): BatchNorm2d(8, eps=1e-05, momentum=0.1, affine=True, track_running_stats=True)
  (2): ReLU(inplace=True)
  (3): Conv2d(8, 8, kernel_size=(3, 3), stride=(1, 1), padding=(1, 1))
  (4): BatchNorm2d(8, eps=1e-05, momentum=0.1, affine=True, track_running_stats=True)
)
Size of Weight: torch.Size([8, 8, 3, 3])
Size of Weight: torch.Size([8])
Size of Weight: torch.Size([8, 8, 3, 3])
Size of Weight: torch.Size([8])
module: Sequential(
  (0): Conv2d(8, 16, kernel_size=(3, 3), stride=(2, 2), padding=(1, 1))
  (1): BatchNorm2d(16, eps=1e-05, momentum=0.1, affine=True, track_running_stats=True)
  (2): ReLU(inplace=True)
  (3): Conv2d(16, 16, kernel_size=(3, 3), stride=(1, 1), padding=(1, 1))
  (4): BatchNorm2d(16, eps=1e-05, momentum=0.1, affine=True, track_running_stats=True)
  (5): ReLU(inplace=True)
)
Size of Weight: torch.Size([16, 8, 3, 3])
Size of Weight: torch.Size([16])
Size of Weight: torch.Size([16, 16, 3, 3])
Size of Weight: torch.Size([16])
module: Sequential(
  (0): Conv2d(8, 16, kernel_size=(1, 1), stride=(2, 2))
  (1): BatchNorm2d(16, eps=1e-05, momentum=0.1, affine=True, track_running_stats=True)
)
Size of Weight: torch.Size([16, 8, 1, 1])
Size of Weight: torch.Size([16])
module: Sequential(
  (0): Conv2d(16, 16, kernel_size=(3, 3), stride=(1, 1), padding=(1, 1), bias=False)
  (1): BatchNorm2d(16, eps=1e-05, momentum=0.1, affine=True, track_running_stats=True)
)
Size of Weight: torch.Size([16, 16, 3, 3])
Size of Weight: torch.Size([16])
module: Sequential(
  (0): Conv2d(16, 16, kernel_size=(3, 3), stride=(1, 1), padding=(1, 1))
  (1): BatchNorm2d(16, eps=1e-05, momentum=0.1, affine=True, track_running_stats=True)
  (2): ReLU(inplace=True)
  (3): Conv2d(16, 16, kernel_size=(3, 3), stride=(1, 1), padding=(1, 1))
  (4): BatchNorm2d(16, eps=1e-05, momentum=0.1, affine=True, track_running_stats=True)
)
Size of Weight: torch.Size([16, 16, 3, 3])
Size of Weight: torch.Size([16])
Size of Weight: torch.Size([16, 16, 3, 3])
Size of Weight: torch.Size([16])
module: Sequential(
  (0): Conv2d(16, 16, kernel_size=(3, 3), stride=(1, 1), padding=(1, 1))
  (1): BatchNorm2d(16, eps=1e-05, momentum=0.1, affine=True, track_running_stats=True)
  (2): ReLU(inplace=True)
  (3): Conv2d(16, 16, kernel_size=(3, 3), stride=(1, 1), padding=(1, 1))
  (4): BatchNorm2d(16, eps=1e-05, momentum=0.1, affine=True, track_running_stats=True)
)
Size of Weight: torch.Size([16, 16, 3, 3])
Size of Weight: torch.Size([16])
Size of Weight: torch.Size([16, 16, 3, 3])
Size of Weight: torch.Size([16])
module: Sequential(
  (0): Conv2d(16, 16, kernel_size=(3, 3), stride=(1, 1), padding=(1, 1))
  (1): BatchNorm2d(16, eps=1e-05, momentum=0.1, affine=True, track_running_stats=True)
  (2): ReLU(inplace=True)
  (3): Conv2d(16, 16, kernel_size=(3, 3), stride=(1, 1), padding=(1, 1))
  (4): BatchNorm2d(16, eps=1e-05, momentum=0.1, affine=True, track_running_stats=True)
)
Size of Weight: torch.Size([16, 16, 3, 3])
Size of Weight: torch.Size([16])
Size of Weight: torch.Size([16, 16, 3, 3])
Size of Weight: torch.Size([16])
module: AdaptiveAvgPool2d(output_size=(1, 1))
module: Linear(in_features=16, out_features=10, bias=True)
Size of Weight: torch.Size([10, 16])
N2N(
  (module_list): ModuleList(
    (0): Conv2d(3, 4, kernel_size=(3, 3), stride=(1, 1), padding=(1, 1))
    (1): BatchNorm2d(4, eps=1e-05, momentum=0.1, affine=True, track_running_stats=True)
    (2): ReLU(inplace=True)
    (3): Sequential(
      (0): Conv2d(4, 4, kernel_size=(3, 3), stride=(1, 1), padding=(1, 1))
      (1): BatchNorm2d(4, eps=1e-05, momentum=0.1, affine=True, track_running_stats=True)
      (2): ReLU(inplace=True)
      (3): Conv2d(4, 4, kernel_size=(3, 3), stride=(1, 1), padding=(1, 1))
      (4): BatchNorm2d(4, eps=1e-05, momentum=0.1, affine=True, track_running_stats=True)
    )
    (4): Sequential(
      (0): Conv2d(4, 4, kernel_size=(3, 3), stride=(1, 1), padding=(1, 1))
      (1): BatchNorm2d(4, eps=1e-05, momentum=0.1, affine=True, track_running_stats=True)
    )
    (5): Sequential(
      (0): Conv2d(4, 4, kernel_size=(3, 3), stride=(1, 1), padding=(1, 1))
      (1): BatchNorm2d(4, eps=1e-05, momentum=0.1, affine=True, track_running_stats=True)
      (2): ReLU(inplace=True)
      (3): Conv2d(4, 4, kernel_size=(3, 3), stride=(1, 1), padding=(1, 1))
      (4): BatchNorm2d(4, eps=1e-05, momentum=0.1, affine=True, track_running_stats=True)
    )
    (6): Sequential(
      (0): Conv2d(4, 4, kernel_size=(3, 3), stride=(1, 1), padding=(1, 1))
      (1): BatchNorm2d(4, eps=1e-05, momentum=0.1, affine=True, track_running_stats=True)
      (2): ReLU(inplace=True)
      (3): Conv2d(4, 4, kernel_size=(3, 3), stride=(1, 1), padding=(1, 1))
      (4): BatchNorm2d(4, eps=1e-05, momentum=0.1, affine=True, track_running_stats=True)
    )
    (7): Sequential(
      (0): Conv2d(4, 4, kernel_size=(3, 3), stride=(1, 1), padding=(1, 1))
      (1): BatchNorm2d(4, eps=1e-05, momentum=0.1, affine=True, track_running_stats=True)
      (2): ReLU(inplace=True)
      (3): Conv2d(4, 4, kernel_size=(3, 3), stride=(1, 1), padding=(1, 1))
      (4): BatchNorm2d(4, eps=1e-05, momentum=0.1, affine=True, track_running_stats=True)
    )
    (8): Sequential(
      (0): Conv2d(4, 8, kernel_size=(3, 3), stride=(2, 2), padding=(1, 1))
      (1): BatchNorm2d(8, eps=1e-05, momentum=0.1, affine=True, track_running_stats=True)
      (2): ReLU(inplace=True)
      (3): Conv2d(8, 8, kernel_size=(3, 3), stride=(1, 1), padding=(1, 1))
      (4): BatchNorm2d(8, eps=1e-05, momentum=0.1, affine=True, track_running_stats=True)
      (5): ReLU(inplace=True)
    )
    (9): Sequential(
      (0): Conv2d(4, 8, kernel_size=(1, 1), stride=(2, 2))
      (1): BatchNorm2d(8, eps=1e-05, momentum=0.1, affine=True, track_running_stats=True)
    )
    (10): Sequential(
      (0): Conv2d(8, 8, kernel_size=(3, 3), stride=(1, 1), padding=(1, 1))
      (1): BatchNorm2d(8, eps=1e-05, momentum=0.1, affine=True, track_running_stats=True)
    )
    (11): Sequential(
      (0): Conv2d(8, 8, kernel_size=(3, 3), stride=(1, 1), padding=(1, 1))
      (1): BatchNorm2d(8, eps=1e-05, momentum=0.1, affine=True, track_running_stats=True)
      (2): ReLU(inplace=True)
      (3): Conv2d(8, 8, kernel_size=(3, 3), stride=(1, 1), padding=(1, 1))
      (4): BatchNorm2d(8, eps=1e-05, momentum=0.1, affine=True, track_running_stats=True)
    )
    (12): Sequential(
      (0): Conv2d(8, 8, kernel_size=(3, 3), stride=(1, 1), padding=(1, 1))
      (1): BatchNorm2d(8, eps=1e-05, momentum=0.1, affine=True, track_running_stats=True)
      (2): ReLU(inplace=True)
      (3): Conv2d(8, 8, kernel_size=(3, 3), stride=(1, 1), padding=(1, 1))
      (4): BatchNorm2d(8, eps=1e-05, momentum=0.1, affine=True, track_running_stats=True)
    )
    (13): Sequential(
      (0): Conv2d(8, 8, kernel_size=(3, 3), stride=(1, 1), padding=(1, 1))
      (1): BatchNorm2d(8, eps=1e-05, momentum=0.1, affine=True, track_running_stats=True)
      (2): ReLU(inplace=True)
      (3): Conv2d(8, 8, kernel_size=(3, 3), stride=(1, 1), padding=(1, 1))
      (4): BatchNorm2d(8, eps=1e-05, momentum=0.1, affine=True, track_running_stats=True)
    )
    (14): Sequential(
      (0): Conv2d(8, 16, kernel_size=(3, 3), stride=(2, 2), padding=(1, 1))
      (1): BatchNorm2d(16, eps=1e-05, momentum=0.1, affine=True, track_running_stats=True)
      (2): ReLU(inplace=True)
      (3): Conv2d(16, 16, kernel_size=(3, 3), stride=(1, 1), padding=(1, 1))
      (4): BatchNorm2d(16, eps=1e-05, momentum=0.1, affine=True, track_running_stats=True)
      (5): ReLU(inplace=True)
    )
    (15): Sequential(
      (0): Conv2d(8, 16, kernel_size=(1, 1), stride=(2, 2))
      (1): BatchNorm2d(16, eps=1e-05, momentum=0.1, affine=True, track_running_stats=True)
    )
    (16): Sequential(
      (0): Conv2d(16, 16, kernel_size=(3, 3), stride=(1, 1), padding=(1, 1))
      (1): BatchNorm2d(16, eps=1e-05, momentum=0.1, affine=True, track_running_stats=True)
    )
    (17): Sequential(
      (0): Conv2d(16, 16, kernel_size=(3, 3), stride=(1, 1), padding=(1, 1))
      (1): BatchNorm2d(16, eps=1e-05, momentum=0.1, affine=True, track_running_stats=True)
      (2): ReLU(inplace=True)
      (3): Conv2d(16, 16, kernel_size=(3, 3), stride=(1, 1), padding=(1, 1))
      (4): BatchNorm2d(16, eps=1e-05, momentum=0.1, affine=True, track_running_stats=True)
    )
    (18): Sequential(
      (0): Conv2d(16, 16, kernel_size=(3, 3), stride=(1, 1), padding=(1, 1))
      (1): BatchNorm2d(16, eps=1e-05, momentum=0.1, affine=True, track_running_stats=True)
      (2): ReLU(inplace=True)
      (3): Conv2d(16, 16, kernel_size=(3, 3), stride=(1, 1), padding=(1, 1))
      (4): BatchNorm2d(16, eps=1e-05, momentum=0.1, affine=True, track_running_stats=True)
    )
    (19): Sequential(
      (0): Conv2d(16, 16, kernel_size=(3, 3), stride=(1, 1), padding=(1, 1))
      (1): BatchNorm2d(16, eps=1e-05, momentum=0.1, affine=True, track_running_stats=True)
      (2): ReLU(inplace=True)
      (3): Conv2d(16, 16, kernel_size=(3, 3), stride=(1, 1), padding=(1, 1))
      (4): BatchNorm2d(16, eps=1e-05, momentum=0.1, affine=True, track_running_stats=True)
    )
    (20): AdaptiveAvgPool2d(output_size=(1, 1))
    (21): Linear(in_features=16, out_features=10, bias=True)
  )
  (relu): ReLU(inplace=True)
  (paramList): ParameterList(
      (0): Parameter containing: [torch.cuda.FloatTensor of size 1 (GPU 0)]
      (1): Parameter containing: [torch.cuda.FloatTensor of size 1 (GPU 0)]
      (2): Parameter containing: [torch.cuda.FloatTensor of size 1 (GPU 0)]
      (3): Parameter containing: [torch.cuda.FloatTensor of size 1 (GPU 0)]
…
