…
Layer index: 27; Pruned filters: 26
Layer index: 29; Pruned filters: 1
Layer index: 29; Pruned filters: 10
Layer index: 29; Pruned filters: 1
Layer index: 29; Pruned filters: 14
Layer index: 29; Pruned filters: 2
Layer index: 29; Pruned filters: 5
Layer index: 29; Pruned filters: 1
Layer index: 29; Pruned filters: 2
Layer index: 29; Pruned filters: 1
Layer index: 29; Pruned filters: 1
Layer index: 29; Pruned filters: 9
Layer index: 29; Pruned filters: 2
Target (flops): 68.863M
After Pruning | FLOPs: 4.505M | #Params: 0.029M
model: ResNet(
  (features): Sequential(
    (0): Sequential(
      (0): Conv2d(3, 9, kernel_size=(3, 3), stride=(1, 1), padding=(1, 1), bias=False)
      (1): BatchNorm2d(9, eps=1e-05, momentum=0.1, affine=True, track_running_stats=True)
      (2): ReLU(inplace=True)
    )
    (1): Sequential(
      (0): BasicBlock(
        (conv): Sequential(
          (0): Conv2d(9, 1, kernel_size=(3, 3), stride=(1, 1), padding=(1, 1), bias=False)
          (1): BatchNorm2d(1, eps=1e-05, momentum=0.1, affine=True, track_running_stats=True)
          (2): ReLU(inplace=True)
          (3): Conv2d(1, 9, kernel_size=(3, 3), stride=(1, 1), padding=(1, 1), bias=False)
          (4): BatchNorm2d(9, eps=1e-05, momentum=0.1, affine=True, track_running_stats=True)
        )
        (shortcut): Sequential()
      )
      (1): BasicBlock(
        (conv): Sequential(
          (0): Conv2d(9, 2, kernel_size=(3, 3), stride=(1, 1), padding=(1, 1), bias=False)
          (1): BatchNorm2d(2, eps=1e-05, momentum=0.1, affine=True, track_running_stats=True)
          (2): ReLU(inplace=True)
          (3): Conv2d(2, 9, kernel_size=(3, 3), stride=(1, 1), padding=(1, 1), bias=False)
          (4): BatchNorm2d(9, eps=1e-05, momentum=0.1, affine=True, track_running_stats=True)
        )
        (shortcut): Sequential()
      )
      (2): BasicBlock(
        (conv): Sequential(
          (0): Conv2d(9, 2, kernel_size=(3, 3), stride=(1, 1), padding=(1, 1), bias=False)
          (1): BatchNorm2d(2, eps=1e-05, momentum=0.1, affine=True, track_running_stats=True)
          (2): ReLU(inplace=True)
          (3): Conv2d(2, 9, kernel_size=(3, 3), stride=(1, 1), padding=(1, 1), bias=False)
          (4): BatchNorm2d(9, eps=1e-05, momentum=0.1, affine=True, track_running_stats=True)
        )
        (shortcut): Sequential()
      )
      (3): BasicBlock(
        (conv): Sequential(
          (0): Conv2d(9, 2, kernel_size=(3, 3), stride=(1, 1), padding=(1, 1), bias=False)
          (1): BatchNorm2d(2, eps=1e-05, momentum=0.1, affine=True, track_running_stats=True)
          (2): ReLU(inplace=True)
          (3): Conv2d(2, 9, kernel_size=(3, 3), stride=(1, 1), padding=(1, 1), bias=False)
          (4): BatchNorm2d(9, eps=1e-05, momentum=0.1, affine=True, track_running_stats=True)
        )
        (shortcut): Sequential()
      )
      (4): BasicBlock(
        (conv): Sequential(
          (0): Conv2d(9, 4, kernel_size=(3, 3), stride=(1, 1), padding=(1, 1), bias=False)
          (1): BatchNorm2d(4, eps=1e-05, momentum=0.1, affine=True, track_running_stats=True)
          (2): ReLU(inplace=True)
          (3): Conv2d(4, 9, kernel_size=(3, 3), stride=(1, 1), padding=(1, 1), bias=False)
          (4): BatchNorm2d(9, eps=1e-05, momentum=0.1, affine=True, track_running_stats=True)
        )
        (shortcut): Sequential()
      )
    )
    (2): Sequential(
      (0): BasicBlock(
        (conv): Sequential(
          (0): Conv2d(9, 5, kernel_size=(3, 3), stride=(2, 2), padding=(1, 1), bias=False)
          (1): BatchNorm2d(5, eps=1e-05, momentum=0.1, affine=True, track_running_stats=True)
          (2): ReLU(inplace=True)
          (3): Conv2d(5, 17, kernel_size=(3, 3), stride=(1, 1), padding=(1, 1), bias=False)
          (4): BatchNorm2d(17, eps=1e-05, momentum=0.1, affine=True, track_running_stats=True)
        )
        (shortcut): DownsampleA(
          (avg): AvgPool2d(kernel_size=1, stride=2, padding=0)
        )
      )
      (1): BasicBlock(
        (conv): Sequential(
          (0): Conv2d(17, 2, kernel_size=(3, 3), stride=(1, 1), padding=(1, 1), bias=False)
          (1): BatchNorm2d(2, eps=1e-05, momentum=0.1, affine=True, track_running_stats=True)
          (2): ReLU(inplace=True)
          (3): Conv2d(2, 17, kernel_size=(3, 3), stride=(1, 1), padding=(1, 1), bias=False)
          (4): BatchNorm2d(17, eps=1e-05, momentum=0.1, affine=True, track_running_stats=True)
        )
        (shortcut): Sequential()
      )
      (2): BasicBlock(
        (conv): Sequential(
          (0): Conv2d(17, 2, kernel_size=(3, 3), stride=(1, 1), padding=(1, 1), bias=False)
          (1): BatchNorm2d(2, eps=1e-05, momentum=0.1, affine=True, track_running_stats=True)
          (2): ReLU(inplace=True)
          (3): Conv2d(2, 17, kernel_size=(3, 3), stride=(1, 1), padding=(1, 1), bias=False)
          (4): BatchNorm2d(17, eps=1e-05, momentum=0.1, affine=True, track_running_stats=True)
        )
        (shortcut): Sequential()
      )
      (3): BasicBlock(
        (conv): Sequential(
          (0): Conv2d(17, 2, kernel_size=(3, 3), stride=(1, 1), padding=(1, 1), bias=False)
          (1): BatchNorm2d(2, eps=1e-05, momentum=0.1, affine=True, track_running_stats=True)
          (2): ReLU(inplace=True)
          (3): Conv2d(2, 17, kernel_size=(3, 3), stride=(1, 1), padding=(1, 1), bias=False)
          (4): BatchNorm2d(17, eps=1e-05, momentum=0.1, affine=True, track_running_stats=True)
        )
        (shortcut): Sequential()
      )
      (4): BasicBlock(
        (conv): Sequential(
          (0): Conv2d(17, 2, kernel_size=(3, 3), stride=(1, 1), padding=(1, 1), bias=False)
          (1): BatchNorm2d(2, eps=1e-05, momentum=0.1, affine=True, track_running_stats=True)
          (2): ReLU(inplace=True)
          (3): Conv2d(2, 17, kernel_size=(3, 3), stride=(1, 1), padding=(1, 1), bias=False)
          (4): BatchNorm2d(17, eps=1e-05, momentum=0.1, affine=True, track_running_stats=True)
        )
        (shortcut): Sequential()
      )
    )
    (3): Sequential(
      (0): BasicBlock(
        (conv): Sequential(
          (0): Conv2d(17, 25, kernel_size=(3, 3), stride=(2, 2), padding=(1, 1), bias=False)
          (1): BatchNorm2d(25, eps=1e-05, momentum=0.1, affine=True, track_running_stats=True)
          (2): ReLU(inplace=True)
          (3): Conv2d(25, 27, kernel_size=(3, 3), stride=(1, 1), padding=(1, 1), bias=False)
          (4): BatchNorm2d(27, eps=1e-05, momentum=0.1, affine=True, track_running_stats=True)
        )
        (shortcut): DownsampleA(
          (avg): AvgPool2d(kernel_size=1, stride=2, padding=0)
        )
      )
      (1): BasicBlock(
        (conv): Sequential(
          (0): Conv2d(27, 10, kernel_size=(3, 3), stride=(1, 1), padding=(1, 1), bias=False)
          (1): BatchNorm2d(10, eps=1e-05, momentum=0.1, affine=True, track_running_stats=True)
          (2): ReLU(inplace=True)
          (3): Conv2d(10, 27, kernel_size=(3, 3), stride=(1, 1), padding=(1, 1), bias=False)
          (4): BatchNorm2d(27, eps=1e-05, momentum=0.1, affine=True, track_running_stats=True)
        )
        (shortcut): Sequential()
      )
      (2): BasicBlock(
        (conv): Sequential(
          (0): Conv2d(27, 1, kernel_size=(3, 3), stride=(1, 1), padding=(1, 1), bias=False)
          (1): BatchNorm2d(1, eps=1e-05, momentum=0.1, affine=True, track_running_stats=True)
          (2): ReLU(inplace=True)
          (3): Conv2d(1, 27, kernel_size=(3, 3), stride=(1, 1), padding=(1, 1), bias=False)
          (4): BatchNorm2d(27, eps=1e-05, momentum=0.1, affine=True, track_running_stats=True)
        )
        (shortcut): Sequential()
      )
      (3): BasicBlock(
        (conv): Sequential(
          (0): Conv2d(27, 2, kernel_size=(3, 3), stride=(1, 1), padding=(1, 1), bias=False)
          (1): BatchNorm2d(2, eps=1e-05, momentum=0.1, affine=True, track_running_stats=True)
          (2): ReLU(inplace=True)
          (3): Conv2d(2, 27, kernel_size=(3, 3), stride=(1, 1), padding=(1, 1), bias=False)
          (4): BatchNorm2d(27, eps=1e-05, momentum=0.1, affine=True, track_running_stats=True)
        )
        (shortcut): Sequential()
      )
      (4): BasicBlock(
        (conv): Sequential(
          (0): Conv2d(27, 15, kernel_size=(3, 3), stride=(1, 1), padding=(1, 1), bias=False)
          (1): BatchNorm2d(15, eps=1e-05, momentum=0.1, affine=True, track_running_stats=True)
          (2): ReLU(inplace=True)
          (3): Conv2d(15, 27, kernel_size=(3, 3), stride=(1, 1), padding=(1, 1), bias=False)
          (4): BatchNorm2d(27, eps=1e-05, momentum=0.1, affine=True, track_running_stats=True)
        )
        (shortcut): Sequential()
      )
    )
    (4): AvgPool2d(kernel_size=8, stride=8, padding=0)
  )
  (classifier): Sequential(
    (0): Linear(in_features=27, out_features=10, bias=True)
  )
)
Test acc: 54.1
