…
Train | Batch (1/196) | Top-1: 83.59 (214/256)
Train | Batch (101/196) | Top-1: 85.13 (22012/25856)
Train | Batch (196/196) | Top-1: 84.83 (42414/50000)
Regular: nan
Epoche: 28; regular: nan: flops 68551070
#Filters: 1555, #FLOPs: 68.71M | Top-1: 73.10
Epoch 28 | Top-1: 73.10
Train | Batch (1/196) | Top-1: 87.50 (224/256)
Train | Batch (101/196) | Top-1: 85.11 (22006/25856)
Train | Batch (196/196) | Top-1: 85.16 (42580/50000)
Regular: nan
Epoche: 29; regular: nan: flops 68551070
#Filters: 1555, #FLOPs: 68.71M | Top-1: 77.87
Epoch 29 | Top-1: 77.87
model: ResNet(
  (features): Sequential(
    (0): Sequential(
      (0): Conv2d(3, 35, kernel_size=(3, 3), stride=(1, 1), padding=(1, 1), bias=False)
      (1): BatchNorm2d(35, eps=1e-05, momentum=0.1, affine=True, track_running_stats=True)
      (2): ReLU(inplace=True)
    )
    (1): Sequential(
      (0): BasicBlock(
        (conv): Sequential(
          (0): Conv2d(35, 7, kernel_size=(3, 3), stride=(1, 1), padding=(1, 1), bias=False)
          (1): BatchNorm2d(7, eps=1e-05, momentum=0.1, affine=True, track_running_stats=True)
          (2): ReLU(inplace=True)
          (3): Conv2d(7, 35, kernel_size=(3, 3), stride=(1, 1), padding=(1, 1), bias=False)
          (4): BatchNorm2d(35, eps=1e-05, momentum=0.1, affine=True, track_running_stats=True)
        )
        (shortcut): Sequential()
      )
      (1): BasicBlock(
        (conv): Sequential(
          (0): Conv2d(35, 4, kernel_size=(3, 3), stride=(1, 1), padding=(1, 1), bias=False)
          (1): BatchNorm2d(4, eps=1e-05, momentum=0.1, affine=True, track_running_stats=True)
          (2): ReLU(inplace=True)
          (3): Conv2d(4, 35, kernel_size=(3, 3), stride=(1, 1), padding=(1, 1), bias=False)
          (4): BatchNorm2d(35, eps=1e-05, momentum=0.1, affine=True, track_running_stats=True)
        )
        (shortcut): Sequential()
      )
      (2): BasicBlock(
        (conv): Sequential(
          (0): Conv2d(35, 2, kernel_size=(3, 3), stride=(1, 1), padding=(1, 1), bias=False)
          (1): BatchNorm2d(2, eps=1e-05, momentum=0.1, affine=True, track_running_stats=True)
          (2): ReLU(inplace=True)
          (3): Conv2d(2, 35, kernel_size=(3, 3), stride=(1, 1), padding=(1, 1), bias=False)
          (4): BatchNorm2d(35, eps=1e-05, momentum=0.1, affine=True, track_running_stats=True)
        )
        (shortcut): Sequential()
      )
      (3): BasicBlock(
        (conv): Sequential(
          (0): Conv2d(35, 2, kernel_size=(3, 3), stride=(1, 1), padding=(1, 1), bias=False)
          (1): BatchNorm2d(2, eps=1e-05, momentum=0.1, affine=True, track_running_stats=True)
          (2): ReLU(inplace=True)
          (3): Conv2d(2, 35, kernel_size=(3, 3), stride=(1, 1), padding=(1, 1), bias=False)
          (4): BatchNorm2d(35, eps=1e-05, momentum=0.1, affine=True, track_running_stats=True)
        )
        (shortcut): Sequential()
      )
      (4): BasicBlock(
        (conv): Sequential(
          (0): Conv2d(35, 2, kernel_size=(3, 3), stride=(1, 1), padding=(1, 1), bias=False)
          (1): BatchNorm2d(2, eps=1e-05, momentum=0.1, affine=True, track_running_stats=True)
          (2): ReLU(inplace=True)
          (3): Conv2d(2, 35, kernel_size=(3, 3), stride=(1, 1), padding=(1, 1), bias=False)
          (4): BatchNorm2d(35, eps=1e-05, momentum=0.1, affine=True, track_running_stats=True)
        )
        (shortcut): Sequential()
      )
    )
    (2): Sequential(
      (0): BasicBlock(
        (conv): Sequential(
          (0): Conv2d(35, 29, kernel_size=(3, 3), stride=(2, 2), padding=(1, 1), bias=False)
          (1): BatchNorm2d(29, eps=1e-05, momentum=0.1, affine=True, track_running_stats=True)
          (2): ReLU(inplace=True)
          (3): Conv2d(29, 68, kernel_size=(3, 3), stride=(1, 1), padding=(1, 1), bias=False)
          (4): BatchNorm2d(68, eps=1e-05, momentum=0.1, affine=True, track_running_stats=True)
        )
        (shortcut): DownsampleA(
          (avg): AvgPool2d(kernel_size=1, stride=2, padding=0)
        )
      )
      (1): BasicBlock(
        (conv): Sequential(
          (0): Conv2d(68, 16, kernel_size=(3, 3), stride=(1, 1), padding=(1, 1), bias=False)
          (1): BatchNorm2d(16, eps=1e-05, momentum=0.1, affine=True, track_running_stats=True)
          (2): ReLU(inplace=True)
          (3): Conv2d(16, 68, kernel_size=(3, 3), stride=(1, 1), padding=(1, 1), bias=False)
          (4): BatchNorm2d(68, eps=1e-05, momentum=0.1, affine=True, track_running_stats=True)
        )
        (shortcut): Sequential()
      )
      (2): BasicBlock(
        (conv): Sequential(
          (0): Conv2d(68, 13, kernel_size=(3, 3), stride=(1, 1), padding=(1, 1), bias=False)
          (1): BatchNorm2d(13, eps=1e-05, momentum=0.1, affine=True, track_running_stats=True)
          (2): ReLU(inplace=True)
          (3): Conv2d(13, 68, kernel_size=(3, 3), stride=(1, 1), padding=(1, 1), bias=False)
          (4): BatchNorm2d(68, eps=1e-05, momentum=0.1, affine=True, track_running_stats=True)
        )
        (shortcut): Sequential()
      )
      (3): BasicBlock(
        (conv): Sequential(
          (0): Conv2d(68, 1, kernel_size=(3, 3), stride=(1, 1), padding=(1, 1), bias=False)
          (1): BatchNorm2d(1, eps=1e-05, momentum=0.1, affine=True, track_running_stats=True)
          (2): ReLU(inplace=True)
          (3): Conv2d(1, 68, kernel_size=(3, 3), stride=(1, 1), padding=(1, 1), bias=False)
          (4): BatchNorm2d(68, eps=1e-05, momentum=0.1, affine=True, track_running_stats=True)
        )
        (shortcut): Sequential()
      )
      (4): BasicBlock(
        (conv): Sequential(
          (0): Conv2d(68, 6, kernel_size=(3, 3), stride=(1, 1), padding=(1, 1), bias=False)
          (1): BatchNorm2d(6, eps=1e-05, momentum=0.1, affine=True, track_running_stats=True)
          (2): ReLU(inplace=True)
          (3): Conv2d(6, 68, kernel_size=(3, 3), stride=(1, 1), padding=(1, 1), bias=False)
          (4): BatchNorm2d(68, eps=1e-05, momentum=0.1, affine=True, track_running_stats=True)
        )
        (shortcut): Sequential()
      )
    )
    (3): Sequential(
      (0): BasicBlock(
        (conv): Sequential(
          (0): Conv2d(68, 84, kernel_size=(3, 3), stride=(2, 2), padding=(1, 1), bias=False)
          (1): BatchNorm2d(84, eps=1e-05, momentum=0.1, affine=True, track_running_stats=True)
          (2): ReLU(inplace=True)
          (3): Conv2d(84, 131, kernel_size=(3, 3), stride=(1, 1), padding=(1, 1), bias=False)
          (4): BatchNorm2d(131, eps=1e-05, momentum=0.1, affine=True, track_running_stats=True)
        )
        (shortcut): DownsampleA(
          (avg): AvgPool2d(kernel_size=1, stride=2, padding=0)
        )
      )
      (1): BasicBlock(
        (conv): Sequential(
          (0): Conv2d(131, 84, kernel_size=(3, 3), stride=(1, 1), padding=(1, 1), bias=False)
          (1): BatchNorm2d(84, eps=1e-05, momentum=0.1, affine=True, track_running_stats=True)
          (2): ReLU(inplace=True)
          (3): Conv2d(84, 131, kernel_size=(3, 3), stride=(1, 1), padding=(1, 1), bias=False)
          (4): BatchNorm2d(131, eps=1e-05, momentum=0.1, affine=True, track_running_stats=True)
        )
        (shortcut): Sequential()
      )
      (2): BasicBlock(
        (conv): Sequential(
          (0): Conv2d(131, 49, kernel_size=(3, 3), stride=(1, 1), padding=(1, 1), bias=False)
          (1): BatchNorm2d(49, eps=1e-05, momentum=0.1, affine=True, track_running_stats=True)
          (2): ReLU(inplace=True)
          (3): Conv2d(49, 131, kernel_size=(3, 3), stride=(1, 1), padding=(1, 1), bias=False)
          (4): BatchNorm2d(131, eps=1e-05, momentum=0.1, affine=True, track_running_stats=True)
        )
        (shortcut): Sequential()
      )
      (3): BasicBlock(
        (conv): Sequential(
          (0): Conv2d(131, 27, kernel_size=(3, 3), stride=(1, 1), padding=(1, 1), bias=False)
          (1): BatchNorm2d(27, eps=1e-05, momentum=0.1, affine=True, track_running_stats=True)
          (2): ReLU(inplace=True)
          (3): Conv2d(27, 131, kernel_size=(3, 3), stride=(1, 1), padding=(1, 1), bias=False)
          (4): BatchNorm2d(131, eps=1e-05, momentum=0.1, affine=True, track_running_stats=True)
        )
        (shortcut): Sequential()
      )
      (4): BasicBlock(
        (conv): Sequential(
          (0): Conv2d(131, 31, kernel_size=(3, 3), stride=(1, 1), padding=(1, 1), bias=False)
          (1): BatchNorm2d(31, eps=1e-05, momentum=0.1, affine=True, track_running_stats=True)
          (2): ReLU(inplace=True)
          (3): Conv2d(31, 131, kernel_size=(3, 3), stride=(1, 1), padding=(1, 1), bias=False)
          (4): BatchNorm2d(131, eps=1e-05, momentum=0.1, affine=True, track_running_stats=True)
        )
        (shortcut): Sequential()
      )
    )
    (4): AvgPool2d(kernel_size=8, stride=8, padding=0)
  )
  (classifier): Sequential(
    (0): Linear(in_features=131, out_features=10, bias=True)
  )
)
Test acc: 77.86999999999999
