j: 0 bis 5
no display found. Using non-interactive Agg backend
[5, 5, 5]
Files already downloaded and verified
stage: 0; sizeof Layers: 3
stage: 1; sizeof Layers: 6
stage: 2; sizeof Layers: 12
N2N(
  (module_list): ModuleList(
    (0): Conv2d(3, 3, kernel_size=(3, 3), stride=(1, 1), padding=(1, 1), bias=False)
    (1): BatchNorm2d(3, eps=1e-05, momentum=0.1, affine=True, track_running_stats=True)
    (2): Conv2d(3, 3, kernel_size=(3, 3), stride=(1, 1), padding=(1, 1), bias=False)
    (3): BatchNorm2d(3, eps=1e-05, momentum=0.1, affine=True, track_running_stats=True)
    (4): Conv2d(3, 3, kernel_size=(3, 3), stride=(1, 1), padding=(1, 1), bias=False)
    (5): BatchNorm2d(3, eps=1e-05, momentum=0.1, affine=True, track_running_stats=True)
    (6): Conv2d(3, 3, kernel_size=(3, 3), stride=(1, 1), padding=(1, 1), bias=False)
    (7): BatchNorm2d(3, eps=1e-05, momentum=0.1, affine=True, track_running_stats=True)
    (8): Conv2d(3, 3, kernel_size=(3, 3), stride=(1, 1), padding=(1, 1), bias=False)
    (9): BatchNorm2d(3, eps=1e-05, momentum=0.1, affine=True, track_running_stats=True)
    (10): Conv2d(3, 3, kernel_size=(3, 3), stride=(1, 1), padding=(1, 1), bias=False)
    (11): BatchNorm2d(3, eps=1e-05, momentum=0.1, affine=True, track_running_stats=True)
    (12): Conv2d(3, 3, kernel_size=(3, 3), stride=(1, 1), padding=(1, 1), bias=False)
    (13): BatchNorm2d(3, eps=1e-05, momentum=0.1, affine=True, track_running_stats=True)
    (14): Conv2d(3, 3, kernel_size=(3, 3), stride=(1, 1), padding=(1, 1), bias=False)
    (15): BatchNorm2d(3, eps=1e-05, momentum=0.1, affine=True, track_running_stats=True)
    (16): Conv2d(3, 3, kernel_size=(3, 3), stride=(1, 1), padding=(1, 1), bias=False)
    (17): BatchNorm2d(3, eps=1e-05, momentum=0.1, affine=True, track_running_stats=True)
    (18): Conv2d(3, 3, kernel_size=(3, 3), stride=(1, 1), padding=(1, 1), bias=False)
    (19): BatchNorm2d(3, eps=1e-05, momentum=0.1, affine=True, track_running_stats=True)
    (20): Conv2d(3, 3, kernel_size=(3, 3), stride=(1, 1), padding=(1, 1), bias=False)
    (21): BatchNorm2d(3, eps=1e-05, momentum=0.1, affine=True, track_running_stats=True)
    (22): Conv2d(3, 6, kernel_size=(3, 3), stride=(2, 2), padding=(1, 1), bias=False)
    (23): BatchNorm2d(6, eps=1e-05, momentum=0.1, affine=True, track_running_stats=True)
    (24): Conv2d(6, 6, kernel_size=(3, 3), stride=(1, 1), padding=(1, 1), bias=False)
    (25): BatchNorm2d(6, eps=1e-05, momentum=0.1, affine=True, track_running_stats=True)
    (26): Conv2d(3, 6, kernel_size=(3, 3), stride=(2, 2), padding=(1, 1), bias=False)
    (27): BatchNorm2d(6, eps=1e-05, momentum=0.1, affine=True, track_running_stats=True)
    (28): Conv2d(6, 6, kernel_size=(3, 3), stride=(1, 1), padding=(1, 1), bias=False)
    (29): BatchNorm2d(6, eps=1e-05, momentum=0.1, affine=True, track_running_stats=True)
    (30): Conv2d(6, 6, kernel_size=(3, 3), stride=(1, 1), padding=(1, 1), bias=False)
    (31): BatchNorm2d(6, eps=1e-05, momentum=0.1, affine=True, track_running_stats=True)
    (32): Conv2d(6, 6, kernel_size=(3, 3), stride=(1, 1), padding=(1, 1), bias=False)
    (33): BatchNorm2d(6, eps=1e-05, momentum=0.1, affine=True, track_running_stats=True)
    (34): Conv2d(6, 6, kernel_size=(3, 3), stride=(1, 1), padding=(1, 1), bias=False)
    (35): BatchNorm2d(6, eps=1e-05, momentum=0.1, affine=True, track_running_stats=True)
    (36): Conv2d(6, 6, kernel_size=(3, 3), stride=(1, 1), padding=(1, 1), bias=False)
    (37): BatchNorm2d(6, eps=1e-05, momentum=0.1, affine=True, track_running_stats=True)
    (38): Conv2d(6, 6, kernel_size=(3, 3), stride=(1, 1), padding=(1, 1), bias=False)
    (39): BatchNorm2d(6, eps=1e-05, momentum=0.1, affine=True, track_running_stats=True)
    (40): Conv2d(6, 6, kernel_size=(3, 3), stride=(1, 1), padding=(1, 1), bias=False)
    (41): BatchNorm2d(6, eps=1e-05, momentum=0.1, affine=True, track_running_stats=True)
    (42): Conv2d(6, 6, kernel_size=(3, 3), stride=(1, 1), padding=(1, 1), bias=False)
    (43): BatchNorm2d(6, eps=1e-05, momentum=0.1, affine=True, track_running_stats=True)
    (44): Conv2d(6, 12, kernel_size=(3, 3), stride=(2, 2), padding=(1, 1), bias=False)
    (45): BatchNorm2d(12, eps=1e-05, momentum=0.1, affine=True, track_running_stats=True)
    (46): Conv2d(12, 12, kernel_size=(3, 3), stride=(1, 1), padding=(1, 1), bias=False)
    (47): BatchNorm2d(12, eps=1e-05, momentum=0.1, affine=True, track_running_stats=True)
    (48): Conv2d(6, 12, kernel_size=(3, 3), stride=(2, 2), padding=(1, 1), bias=False)
    (49): BatchNorm2d(12, eps=1e-05, momentum=0.1, affine=True, track_running_stats=True)
    (50): Conv2d(12, 12, kernel_size=(3, 3), stride=(1, 1), padding=(1, 1), bias=False)
    (51): BatchNorm2d(12, eps=1e-05, momentum=0.1, affine=True, track_running_stats=True)
    (52): Conv2d(12, 12, kernel_size=(3, 3), stride=(1, 1), padding=(1, 1), bias=False)
    (53): BatchNorm2d(12, eps=1e-05, momentum=0.1, affine=True, track_running_stats=True)
    (54): Conv2d(12, 12, kernel_size=(3, 3), stride=(1, 1), padding=(1, 1), bias=False)
    (55): BatchNorm2d(12, eps=1e-05, momentum=0.1, affine=True, track_running_stats=True)
    (56): Conv2d(12, 12, kernel_size=(3, 3), stride=(1, 1), padding=(1, 1), bias=False)
    (57): BatchNorm2d(12, eps=1e-05, momentum=0.1, affine=True, track_running_stats=True)
    (58): Conv2d(12, 12, kernel_size=(3, 3), stride=(1, 1), padding=(1, 1), bias=False)
    (59): BatchNorm2d(12, eps=1e-05, momentum=0.1, affine=True, track_running_stats=True)
    (60): Conv2d(12, 12, kernel_size=(3, 3), stride=(1, 1), padding=(1, 1), bias=False)
    (61): BatchNorm2d(12, eps=1e-05, momentum=0.1, affine=True, track_running_stats=True)
    (62): Conv2d(12, 12, kernel_size=(3, 3), stride=(1, 1), padding=(1, 1), bias=False)
    (63): BatchNorm2d(12, eps=1e-05, momentum=0.1, affine=True, track_running_stats=True)
    (64): Conv2d(12, 12, kernel_size=(3, 3), stride=(1, 1), padding=(1, 1), bias=False)
    (65): BatchNorm2d(12, eps=1e-05, momentum=0.1, affine=True, track_running_stats=True)
    (66): AdaptiveAvgPool2d(output_size=(1, 1))
    (67): Linear(in_features=12, out_features=10, bias=True)
  )
  (relu): ReLU(inplace=True)
)

Same Node:  [['module.conv2.weight', 'module.conv3.weight'], ['module.conv4.weight', 'module.conv5.weight'], ['module.conv6.weight', 'module.conv7.weight'], ['module.conv8.weight', 'module.conv9.weight'], ['module.conv10.weight', 'module.conv11.weight'], ['module.conv12.weight', 'module.conv13.weight'], ['module.conv15
…
Same Node:  [['module.conv2.weight', 'module.conv3.weight'], ['module.conv4.weight', 'module.conv5.weight'], ['module.conv6.weight', 'module.conv7.weight'], ['module.conv8.weight', 'module.conv9.weight'], ['module.conv10.weight', 'module.conv11.weight'], ['module.conv13.weight', 'module.conv14.weight'], ['module.conv15.weight', 'module.conv16.weight'], ['module.conv17.weight', 'module.conv18.weight'], ['module.conv19.weight', 'module.conv20.weight'], ['module.conv21.weight', 'module.conv22.weight'], ['module.conv24.weight', 'module.conv25.weight'], ['module.conv26.weight', 'module.conv27.weight'], ['module.conv28.weight', 'module.conv29.weight'], ['module.conv30.weight', 'module.conv31.weight']]
N2N(
  (module_list): ModuleList(
    (0): Conv2d(3, 3, kernel_size=(3, 3), stride=(1, 1), padding=(1, 1), bias=False)
    (1): BatchNorm2d(3, eps=1e-05, momentum=0.1, affine=True, track_running_stats=True)
    (2): Conv2d(3, 3, kernel_size=(3, 3), stride=(1, 1), padding=(1, 1), bias=False)
    (3): BatchNorm2d(3, eps=1e-05, momentum=0.1, affine=True, track_running_stats=True)
    (4): Conv2d(3, 3, kernel_size=(3, 3), stride=(1, 1), padding=(1, 1), bias=False)
    (5): BatchNorm2d(3, eps=1e-05, momentum=0.1, affine=True, track_running_stats=True)
    (6): Conv2d(3, 1, kernel_size=(3, 3), stride=(1, 1), padding=(1, 1), bias=False)
    (7): BatchNorm2d(1, eps=1e-05, momentum=0.1, affine=True, track_running_stats=True)
    (8): Conv2d(1, 3, kernel_size=(3, 3), stride=(1, 1), padding=(1, 1), bias=False)
    (9): BatchNorm2d(3, eps=1e-05, momentum=0.1, affine=True, track_running_stats=True)
    (10): Conv2d(3, 3, kernel_size=(3, 3), stride=(1, 1), padding=(1, 1), bias=False)
    (11): BatchNorm2d(3, eps=1e-05, momentum=0.1, affine=True, track_running_stats=True)
    (12): Conv2d(3, 3, kernel_size=(3, 3), stride=(1, 1), padding=(1, 1), bias=False)
    (13): BatchNorm2d(3, eps=1e-05, momentum=0.1, affine=True, track_running_stats=True)
    (14): Conv2d(3, 1, kernel_size=(3, 3), stride=(1, 1), padding=(1, 1), bias=False)
    (15): BatchNorm2d(1, eps=1e-05, momentum=0.1, affine=True, track_running_stats=True)
    (16): Conv2d(1, 3, kernel_size=(3, 3), stride=(1, 1), padding=(1, 1), bias=False)
    (17): BatchNorm2d(3, eps=1e-05, momentum=0.1, affine=True, track_running_stats=True)
    (18): Conv2d(3, 2, kernel_size=(3, 3), stride=(2, 2), padding=(1, 1), bias=False)
    (19): BatchNorm2d(2, eps=1e-05, momentum=0.1, affine=True, track_running_stats=True)
    (20): Conv2d(2, 6, kernel_size=(3, 3), stride=(1, 1), padding=(1, 1), bias=False)
    (21): BatchNorm2d(6, eps=1e-05, momentum=0.1, affine=True, track_running_stats=True)
    (22): Conv2d(3, 6, kernel_size=(3, 3), stride=(2, 2), padding=(1, 1), bias=False)
    (23): BatchNorm2d(6, eps=1e-05, momentum=0.1, affine=True, track_running_stats=True)
    (24): Conv2d(6, 3, kernel_size=(3, 3), stride=(1, 1), padding=(1, 1), bias=False)
    (25): BatchNorm2d(3, eps=1e-05, momentum=0.1, affine=True, track_running_stats=True)
    (26): Conv2d(3, 6, kernel_size=(3, 3), stride=(1, 1), padding=(1, 1), bias=False)
    (27): BatchNorm2d(6, eps=1e-05, momentum=0.1, affine=True, track_running_stats=True)
    (28): Conv2d(6, 3, kernel_size=(3, 3), stride=(1, 1), padding=(1, 1), bias=False)
    (29): BatchNorm2d(3, eps=1e-05, momentum=0.1, affine=True, track_running_stats=True)
    (30): Conv2d(3, 6, kernel_size=(3, 3), stride=(1, 1), padding=(1, 1), bias=False)
    (31): BatchNorm2d(6, eps=1e-05, momentum=0.1, affine=True, track_running_stats=True)
    (32): Conv2d(6, 2, kernel_size=(3, 3), stride=(1, 1), padding=(1, 1), bias=False)
    (33): BatchNorm2d(2, eps=1e-05, momentum=0.1, affine=True, track_running_stats=True)
    (34): Conv2d(2, 6, kernel_size=(3, 3), stride=(1, 1), padding=(1, 1), bias=False)
    (35): BatchNorm2d(6, eps=1e-05, momentum=0.1, affine=True, track_running_stats=True)
    (36): Conv2d(6, 2, kernel_size=(3, 3), stride=(1, 1), padding=(1, 1), bias=False)
    (37): BatchNorm2d(2, eps=1e-05, momentum=0.1, affine=True, track_running_stats=True)
    (38): Conv2d(2, 6, kernel_size=(3, 3), stride=(1, 1), padding=(1, 1), bias=False)
    (39): BatchNorm2d(6, eps=1e-05, momentum=0.1, affine=True, track_running_stats=True)
    (40): Conv2d(6, 4, kernel_size=(3, 3), stride=(2, 2), padding=(1, 1), bias=False)
    (41): BatchNorm2d(4, eps=1e-05, momentum=0.1, affine=True, track_running_stats=True)
    (42): Conv2d(4, 10, kernel_size=(3, 3), stride=(1, 1), padding=(1, 1), bias=False)
    (43): BatchNorm2d(10, eps=1e-05, momentum=0.1, affine=True, track_running_stats=True)
    (44): Conv2d(6, 10, kernel_size=(3, 3), stride=(2, 2), padding=(1, 1), bias=False)
    (45): BatchNorm2d(10, eps=1e-05, momentum=0.1, affine=True, track_running_stats=True)
    (46): Conv2d(10, 2, kernel_size=(3, 3), stride=(1, 1), padding=(1, 1), bias=False)
    (47): BatchNorm2d(2, eps=1e-05, momentum=0.1, affine=True, track_running_stats=True)
    (48): Conv2d(2, 10, kernel_size=(3, 3), stride=(1, 1), padding=(1, 1), bias=False)
    (49): BatchNorm2d(10, eps=1e-05, momentum=0.1, affine=True, track_running_stats=True)
    (50): Conv2d(10, 2, kernel_size=(3, 3), stride=(1, 1), padding=(1, 1), bias=False)
    (51): BatchNorm2d(2, eps=1e-05, momentum=0.1, affine=True, track_running_stats=True)
    (52): Conv2d(2, 10, kernel_size=(3, 3), stride=(1, 1), padding=(1, 1), bias=False)
    (53): BatchNorm2d(10, eps=1e-05, momentum=0.1, affine=True, track_running_stats=True)
    (54): Conv2d(10, 1, kernel_size=(3, 3), stride=(1, 1), padding=(1, 1), bias=False)
    (55): BatchNorm2d(1, eps=1e-05, momentum=0.1, affine=True, track_running_stats=True)
    (56): Conv2d(1, 10, kernel_size=(3, 3), stride=(1, 1), padding=(1, 1), bias=False)
    (57): BatchNorm2d(10, eps=1e-05, momentum=0.1, affine=True, track_running_stats=True)
    (58): Conv2d(10, 3, kernel_size=(3, 3), stride=(1, 1), padding=(1, 1), bias=False)
    (59): BatchNorm2d(3, eps=1e-05, momentum=0.1, affine=True, track_running_stats=True)
    (60): Conv2d(3, 10, kernel_size=(3, 3), stride=(1, 1), padding=(1, 1), bias=False)
    (61): BatchNorm2d(10, eps=1e-05, momentum=0.1, affine=True, track_running_stats=True)
    (62): AdaptiveAvgPool2d(output_size=(1, 1))
    (63): Linear(in_features=10, out_features=10, bias=True)
  )
  (relu): ReLU(inplace=True)
)
Count: 4813 ; 5043 ; 0.9543922268490977
[INFO] Storing checkpoint...

  4060
  10.0
Max memory: 180.6178304
 4.998s  j: 21 bis 25
no display found. Using non-interactive Agg backend
[5, 5, 5]
Files already downloaded and verified
==> Resuming from checkpoint..
Startepoche: 21
count0: 4813

Epoch: [21 | 25] LR: 1.585938
Epoch: [21][0/13]	Time 1.476 (1.476)	Data 2.163 (2.163)	Loss 2.7605 (2.7605)	Acc@1 21.453 (21.453)	Acc@5 71.330 (71.330)
…
Same Node:  [['module.conv2.weight', 'module.conv3.weight'], ['module.conv4.weight', 'module.conv5.weight'], ['module.conv6.weight', 'module.conv7.weight'], ['module.conv8.weight', 'module.conv9.weight'], ['module.conv11.weight', 'module.conv12.weight'], ['module.conv13.weight', 'module.conv14.weight'], ['module.conv15.weight', 'module.conv16.weight'], ['module.conv17.weight', 'module.conv18.weight'], ['module.conv19.weight', 'module.conv20.weight'], ['module.conv22.weight', 'module.conv23.weight'], ['module.conv24.weight', 'module.conv25.weight'], ['module.conv26.weight', 'module.conv27.weight'], ['module.conv28.weight', 'module.conv29.weight']]
N2N(
  (module_list): ModuleList(
    (0): Conv2d(3, 2, kernel_size=(3, 3), stride=(1, 1), padding=(1, 1), bias=False)
    (1): BatchNorm2d(2, eps=1e-05, momentum=0.1, affine=True, track_running_stats=True)
    (2): Conv2d(2, 1, kernel_size=(3, 3), stride=(1, 1), padding=(1, 1), bias=False)
    (3): BatchNorm2d(1, eps=1e-05, momentum=0.1, affine=True, track_running_stats=True)
    (4): Conv2d(1, 2, kernel_size=(3, 3), stride=(1, 1), padding=(1, 1), bias=False)
    (5): BatchNorm2d(2, eps=1e-05, momentum=0.1, affine=True, track_running_stats=True)
    (6): Conv2d(2, 1, kernel_size=(3, 3), stride=(1, 1), padding=(1, 1), bias=False)
    (7): BatchNorm2d(1, eps=1e-05, momentum=0.1, affine=True, track_running_stats=True)
    (8): Conv2d(1, 2, kernel_size=(3, 3), stride=(1, 1), padding=(1, 1), bias=False)
    (9): BatchNorm2d(2, eps=1e-05, momentum=0.1, affine=True, track_running_stats=True)
    (10): Conv2d(2, 1, kernel_size=(3, 3), stride=(1, 1), padding=(1, 1), bias=False)
    (11): BatchNorm2d(1, eps=1e-05, momentum=0.1, affine=True, track_running_stats=True)
    (12): Conv2d(1, 2, kernel_size=(3, 3), stride=(1, 1), padding=(1, 1), bias=False)
    (13): BatchNorm2d(2, eps=1e-05, momentum=0.1, affine=True, track_running_stats=True)
    (14): Conv2d(2, 1, kernel_size=(3, 3), stride=(2, 2), padding=(1, 1), bias=False)
    (15): BatchNorm2d(1, eps=1e-05, momentum=0.1, affine=True, track_running_stats=True)
    (16): Conv2d(1, 6, kernel_size=(3, 3), stride=(1, 1), padding=(1, 1), bias=False)
    (17): BatchNorm2d(6, eps=1e-05, momentum=0.1, affine=True, track_running_stats=True)
    (18): Conv2d(2, 6, kernel_size=(3, 3), stride=(2, 2), padding=(1, 1), bias=False)
    (19): BatchNorm2d(6, eps=1e-05, momentum=0.1, affine=True, track_running_stats=True)
    (20): Conv2d(6, 1, kernel_size=(3, 3), stride=(1, 1), padding=(1, 1), bias=False)
    (21): BatchNorm2d(1, eps=1e-05, momentum=0.1, affine=True, track_running_stats=True)
    (22): Conv2d(1, 6, kernel_size=(3, 3), stride=(1, 1), padding=(1, 1), bias=False)
    (23): BatchNorm2d(6, eps=1e-05, momentum=0.1, affine=True, track_running_stats=True)
    (24): Conv2d(6, 2, kernel_size=(3, 3), stride=(1, 1), padding=(1, 1), bias=False)
    (25): BatchNorm2d(2, eps=1e-05, momentum=0.1, affine=True, track_running_stats=True)
    (26): Conv2d(2, 6, kernel_size=(3, 3), stride=(1, 1), padding=(1, 1), bias=False)
    (27): BatchNorm2d(6, eps=1e-05, momentum=0.1, affine=True, track_running_stats=True)
    (28): Conv2d(6, 2, kernel_size=(3, 3), stride=(1, 1), padding=(1, 1), bias=False)
    (29): BatchNorm2d(2, eps=1e-05, momentum=0.1, affine=True, track_running_stats=True)
    (30): Conv2d(2, 6, kernel_size=(3, 3), stride=(1, 1), padding=(1, 1), bias=False)
    (31): BatchNorm2d(6, eps=1e-05, momentum=0.1, affine=True, track_running_stats=True)
    (32): Conv2d(6, 2, kernel_size=(3, 3), stride=(1, 1), padding=(1, 1), bias=False)
    (33): BatchNorm2d(2, eps=1e-05, momentum=0.1, affine=True, track_running_stats=True)
    (34): Conv2d(2, 6, kernel_size=(3, 3), stride=(1, 1), padding=(1, 1), bias=False)
    (35): BatchNorm2d(6, eps=1e-05, momentum=0.1, affine=True, track_running_stats=True)
    (36): Conv2d(6, 3, kernel_size=(3, 3), stride=(2, 2), padding=(1, 1), bias=False)
    (37): BatchNorm2d(3, eps=1e-05, momentum=0.1, affine=True, track_running_stats=True)
    (38): Conv2d(3, 10, kernel_size=(3, 3), stride=(1, 1), padding=(1, 1), bias=False)
    (39): BatchNorm2d(10, eps=1e-05, momentum=0.1, affine=True, track_running_stats=True)
    (40): Conv2d(6, 10, kernel_size=(3, 3), stride=(2, 2), padding=(1, 1), bias=False)
    (41): BatchNorm2d(10, eps=1e-05, momentum=0.1, affine=True, track_running_stats=True)
    (42): Conv2d(10, 1, kernel_size=(3, 3), stride=(1, 1), padding=(1, 1), bias=False)
    (43): BatchNorm2d(1, eps=1e-05, momentum=0.1, affine=True, track_running_stats=True)
    (44): Conv2d(1, 10, kernel_size=(3, 3), stride=(1, 1), padding=(1, 1), bias=False)
    (45): BatchNorm2d(10, eps=1e-05, momentum=0.1, affine=True, track_running_stats=True)
    (46): Conv2d(10, 2, kernel_size=(3, 3), stride=(1, 1), padding=(1, 1), bias=False)
    (47): BatchNorm2d(2, eps=1e-05, momentum=0.1, affine=True, track_running_stats=True)
    (48): Conv2d(2, 10, kernel_size=(3, 3), stride=(1, 1), padding=(1, 1), bias=False)
    (49): BatchNorm2d(10, eps=1e-05, momentum=0.1, affine=True, track_running_stats=True)
    (50): Conv2d(10, 1, kernel_size=(3, 3), stride=(1, 1), padding=(1, 1), bias=False)
    (51): BatchNorm2d(1, eps=1e-05, momentum=0.1, affine=True, track_running_stats=True)
    (52): Conv2d(1, 10, kernel_size=(3, 3), stride=(1, 1), padding=(1, 1), bias=False)
    (53): BatchNorm2d(10, eps=1e-05, momentum=0.1, affine=True, track_running_stats=True)
    (54): Conv2d(10, 3, kernel_size=(3, 3), stride=(1, 1), padding=(1, 1), bias=False)
    (55): BatchNorm2d(3, eps=1e-05, momentum=0.1, affine=True, track_running_stats=True)
    (56): Conv2d(3, 10, kernel_size=(3, 3), stride=(1, 1), padding=(1, 1), bias=False)
    (57): BatchNorm2d(10, eps=1e-05, momentum=0.1, affine=True, track_running_stats=True)
    (58): AdaptiveAvgPool2d(output_size=(1, 1))
    (59): Linear(in_features=10, out_features=10, bias=True)
  )
  (relu): ReLU(inplace=True)
)
Count: 3142 ; 3732 ; 0.8419078242229368
[INFO] Storing checkpoint...

  4060
  16.43
Max memory: 126.416896
 4.580s  j: 36 bis 40
no display found. Using non-interactive Agg backend
[5, 5, 5]
Files already downloaded and verified
==> Resuming from checkpoint..
Startepoche: 36
count0: 3142

Epoch: [36 | 40] LR: 1.585938
Epoch: [36][0/13]	Time 0.996 (0.996)	Data 1.567 (1.567)	Loss 2.0354 (2.0354)	Acc@1 25.764 (25.764)	Acc@5 82.931 (82.931)
…
Same Node:  [['module.conv2.weight', 'module.conv3.weight'], ['module.conv4.weight', 'module.conv5.weight'], ['module.conv6.weight', 'module.conv7.weight'], ['module.conv9.weight', 'module.conv10.weight'], ['module.conv11.weight', 'module.conv12.weight'], ['module.conv13.weight', 'module.conv14.weight'], ['module.conv15.weight', 'module.conv16.weight'], ['module.conv17.weight', 'module.conv18.weight'], ['module.conv20.weight', 'module.conv21.weight'], ['module.conv22.weight', 'module.conv23.weight'], ['module.conv24.weight', 'module.conv25.weight'], ['module.conv26.weight', 'module.conv27.weight']]
N2N(
  (module_list): ModuleList(
    (0): Conv2d(3, 2, kernel_size=(3, 3), stride=(1, 1), padding=(1, 1), bias=False)
    (1): BatchNorm2d(2, eps=1e-05, momentum=0.1, affine=True, track_running_stats=True)
    (2): Conv2d(2, 1, kernel_size=(3, 3), stride=(1, 1), padding=(1, 1), bias=False)
    (3): BatchNorm2d(1, eps=1e-05, momentum=0.1, affine=True, track_running_stats=True)
    (4): Conv2d(1, 2, kernel_size=(3, 3), stride=(1, 1), padding=(1, 1), bias=False)
    (5): BatchNorm2d(2, eps=1e-05, momentum=0.1, affine=True, track_running_stats=True)
    (6): Conv2d(2, 1, kernel_size=(3, 3), stride=(1, 1), padding=(1, 1), bias=False)
    (7): BatchNorm2d(1, eps=1e-05, momentum=0.1, affine=True, track_running_stats=True)
    (8): Conv2d(1, 2, kernel_size=(3, 3), stride=(1, 1), padding=(1, 1), bias=False)
    (9): BatchNorm2d(2, eps=1e-05, momentum=0.1, affine=True, track_running_stats=True)
    (10): Conv2d(2, 1, kernel_size=(3, 3), stride=(2, 2), padding=(1, 1), bias=False)
    (11): BatchNorm2d(1, eps=1e-05, momentum=0.1, affine=True, track_running_stats=True)
    (12): Conv2d(1, 5, kernel_size=(3, 3), stride=(1, 1), padding=(1, 1), bias=False)
    (13): BatchNorm2d(5, eps=1e-05, momentum=0.1, affine=True, track_running_stats=True)
    (14): Conv2d(2, 5, kernel_size=(3, 3), stride=(2, 2), padding=(1, 1), bias=False)
    (15): BatchNorm2d(5, eps=1e-05, momentum=0.1, affine=True, track_running_stats=True)
    (16): Conv2d(5, 1, kernel_size=(3, 3), stride=(1, 1), padding=(1, 1), bias=False)
    (17): BatchNorm2d(1, eps=1e-05, momentum=0.1, affine=True, track_running_stats=True)
    (18): Conv2d(1, 5, kernel_size=(3, 3), stride=(1, 1), padding=(1, 1), bias=False)
    (19): BatchNorm2d(5, eps=1e-05, momentum=0.1, affine=True, track_running_stats=True)
    (20): Conv2d(5, 1, kernel_size=(3, 3), stride=(1, 1), padding=(1, 1), bias=False)
    (21): BatchNorm2d(1, eps=1e-05, momentum=0.1, affine=True, track_running_stats=True)
    (22): Conv2d(1, 5, kernel_size=(3, 3), stride=(1, 1), padding=(1, 1), bias=False)
    (23): BatchNorm2d(5, eps=1e-05, momentum=0.1, affine=True, track_running_stats=True)
    (24): Conv2d(5, 1, kernel_size=(3, 3), stride=(1, 1), padding=(1, 1), bias=False)
    (25): BatchNorm2d(1, eps=1e-05, momentum=0.1, affine=True, track_running_stats=True)
    (26): Conv2d(1, 5, kernel_size=(3, 3), stride=(1, 1), padding=(1, 1), bias=False)
    (27): BatchNorm2d(5, eps=1e-05, momentum=0.1, affine=True, track_running_stats=True)
    (28): Conv2d(5, 1, kernel_size=(3, 3), stride=(1, 1), padding=(1, 1), bias=False)
    (29): BatchNorm2d(1, eps=1e-05, momentum=0.1, affine=True, track_running_stats=True)
    (30): Conv2d(1, 5, kernel_size=(3, 3), stride=(1, 1), padding=(1, 1), bias=False)
    (31): BatchNorm2d(5, eps=1e-05, momentum=0.1, affine=True, track_running_stats=True)
    (32): Conv2d(5, 2, kernel_size=(3, 3), stride=(2, 2), padding=(1, 1), bias=False)
    (33): BatchNorm2d(2, eps=1e-05, momentum=0.1, affine=True, track_running_stats=True)
    (34): Conv2d(2, 10, kernel_size=(3, 3), stride=(1, 1), padding=(1, 1), bias=False)
    (35): BatchNorm2d(10, eps=1e-05, momentum=0.1, affine=True, track_running_stats=True)
    (36): Conv2d(5, 10, kernel_size=(3, 3), stride=(2, 2), padding=(1, 1), bias=False)
    (37): BatchNorm2d(10, eps=1e-05, momentum=0.1, affine=True, track_running_stats=True)
    (38): Conv2d(10, 1, kernel_size=(3, 3), stride=(1, 1), padding=(1, 1), bias=False)
    (39): BatchNorm2d(1, eps=1e-05, momentum=0.1, affine=True, track_running_stats=True)
    (40): Conv2d(1, 10, kernel_size=(3, 3), stride=(1, 1), padding=(1, 1), bias=False)
    (41): BatchNorm2d(10, eps=1e-05, momentum=0.1, affine=True, track_running_stats=True)
    (42): Conv2d(10, 1, kernel_size=(3, 3), stride=(1, 1), padding=(1, 1), bias=False)
    (43): BatchNorm2d(1, eps=1e-05, momentum=0.1, affine=True, track_running_stats=True)
    (44): Conv2d(1, 10, kernel_size=(3, 3), stride=(1, 1), padding=(1, 1), bias=False)
    (45): BatchNorm2d(10, eps=1e-05, momentum=0.1, affine=True, track_running_stats=True)
    (46): Conv2d(10, 1, kernel_size=(3, 3), stride=(1, 1), padding=(1, 1), bias=False)
    (47): BatchNorm2d(1, eps=1e-05, momentum=0.1, affine=True, track_running_stats=True)
    (48): Conv2d(1, 10, kernel_size=(3, 3), stride=(1, 1), padding=(1, 1), bias=False)
    (49): BatchNorm2d(10, eps=1e-05, momentum=0.1, affine=True, track_running_stats=True)
    (50): Conv2d(10, 3, kernel_size=(3, 3), stride=(1, 1), padding=(1, 1), bias=False)
    (51): BatchNorm2d(3, eps=1e-05, momentum=0.1, affine=True, track_running_stats=True)
    (52): Conv2d(3, 10, kernel_size=(3, 3), stride=(1, 1), padding=(1, 1), bias=False)
    (53): BatchNorm2d(10, eps=1e-05, momentum=0.1, affine=True, track_running_stats=True)
    (54): AdaptiveAvgPool2d(output_size=(1, 1))
    (55): Linear(in_features=10, out_features=10, bias=True)
  )
  (relu): ReLU(inplace=True)
)
Count: 2771 ; 2813 ; 0.9850693210095983
[INFO] Storing checkpoint...

  4060
  28.31
Max memory: 108.3003392
 4.576s  j: 56 bis 60
no display found. Using non-interactive Agg backend
[5, 5, 5]
Files already downloaded and verified
==> Resuming from checkpoint..
Startepoche: 56
count0: 2771

Epoch: [56 | 60] LR: 1.585938
…
]]

Same Node:  [['module.conv2.weight', 'module.conv3.weight'], ['module.conv4.weight', 'module.conv5.weight'], ['module.conv6.weight', 'module.conv7.weight'], ['module.conv9.weight', 'module.conv10.weight'], ['module.conv11.weight', 'module.conv12.weight'], ['module.conv13.weight', 'module.conv14.weight'], ['module.conv15.weight', 'module.conv16.weight'], ['module.conv18.weight', 'module.conv19.weight'], ['module.conv20.weight', 'module.conv21.weight'], ['module.conv22.weight', 'module.conv23.weight'], ['module.conv24.weight', 'module.conv25.weight']]
N2N(
  (module_list): ModuleList(
    (0): Conv2d(3, 2, kernel_size=(3, 3), stride=(1, 1), padding=(1, 1), bias=False)
    (1): BatchNorm2d(2, eps=1e-05, momentum=0.1, affine=True, track_running_stats=True)
    (2): Conv2d(2, 1, kernel_size=(3, 3), stride=(1, 1), padding=(1, 1), bias=False)
    (3): BatchNorm2d(1, eps=1e-05, momentum=0.1, affine=True, track_running_stats=True)
    (4): Conv2d(1, 2, kernel_size=(3, 3), stride=(1, 1), padding=(1, 1), bias=False)
    (5): BatchNorm2d(2, eps=1e-05, momentum=0.1, affine=True, track_running_stats=True)
    (6): Conv2d(2, 1, kernel_size=(3, 3), stride=(1, 1), padding=(1, 1), bias=False)
    (7): BatchNorm2d(1, eps=1e-05, momentum=0.1, affine=True, track_running_stats=True)
    (8): Conv2d(1, 2, kernel_size=(3, 3), stride=(1, 1), padding=(1, 1), bias=False)
    (9): BatchNorm2d(2, eps=1e-05, momentum=0.1, affine=True, track_running_stats=True)
    (10): Conv2d(2, 1, kernel_size=(3, 3), stride=(2, 2), padding=(1, 1), bias=False)
    (11): BatchNorm2d(1, eps=1e-05, momentum=0.1, affine=True, track_running_stats=True)
    (12): Conv2d(1, 5, kernel_size=(3, 3), stride=(1, 1), padding=(1, 1), bias=False)
    (13): BatchNorm2d(5, eps=1e-05, momentum=0.1, affine=True, track_running_stats=True)
    (14): Conv2d(2, 5, kernel_size=(3, 3), stride=(2, 2), padding=(1, 1), bias=False)
    (15): BatchNorm2d(5, eps=1e-05, momentum=0.1, affine=True, track_running_stats=True)
    (16): Conv2d(5, 1, kernel_size=(3, 3), stride=(1, 1), padding=(1, 1), bias=False)
    (17): BatchNorm2d(1, eps=1e-05, momentum=0.1, affine=True, track_running_stats=True)
    (18): Conv2d(1, 5, kernel_size=(3, 3), stride=(1, 1), padding=(1, 1), bias=False)
    (19): BatchNorm2d(5, eps=1e-05, momentum=0.1, affine=True, track_running_stats=True)
    (20): Conv2d(5, 1, kernel_size=(3, 3), stride=(1, 1), padding=(1, 1), bias=False)
    (21): BatchNorm2d(1, eps=1e-05, momentum=0.1, affine=True, track_running_stats=True)
    (22): Conv2d(1, 5, kernel_size=(3, 3), stride=(1, 1), padding=(1, 1), bias=False)
    (23): BatchNorm2d(5, eps=1e-05, momentum=0.1, affine=True, track_running_stats=True)
    (24): Conv2d(5, 1, kernel_size=(3, 3), stride=(1, 1), padding=(1, 1), bias=False)
    (25): BatchNorm2d(1, eps=1e-05, momentum=0.1, affine=True, track_running_stats=True)
    (26): Conv2d(1, 5, kernel_size=(3, 3), stride=(1, 1), padding=(1, 1), bias=False)
    (27): BatchNorm2d(5, eps=1e-05, momentum=0.1, affine=True, track_running_stats=True)
    (28): Conv2d(5, 2, kernel_size=(3, 3), stride=(2, 2), padding=(1, 1), bias=False)
    (29): BatchNorm2d(2, eps=1e-05, momentum=0.1, affine=True, track_running_stats=True)
    (30): Conv2d(2, 10, kernel_size=(3, 3), stride=(1, 1), padding=(1, 1), bias=False)
    (31): BatchNorm2d(10, eps=1e-05, momentum=0.1, affine=True, track_running_stats=True)
    (32): Conv2d(5, 10, kernel_size=(3, 3), stride=(2, 2), padding=(1, 1), bias=False)
    (33): BatchNorm2d(10, eps=1e-05, momentum=0.1, affine=True, track_running_stats=True)
    (34): Conv2d(10, 1, kernel_size=(3, 3), stride=(1, 1), padding=(1, 1), bias=False)
    (35): BatchNorm2d(1, eps=1e-05, momentum=0.1, affine=True, track_running_stats=True)
    (36): Conv2d(1, 10, kernel_size=(3, 3), stride=(1, 1), padding=(1, 1), bias=False)
    (37): BatchNorm2d(10, eps=1e-05, momentum=0.1, affine=True, track_running_stats=True)
    (38): Conv2d(10, 1, kernel_size=(3, 3), stride=(1, 1), padding=(1, 1), bias=False)
    (39): BatchNorm2d(1, eps=1e-05, momentum=0.1, affine=True, track_running_stats=True)
    (40): Conv2d(1, 10, kernel_size=(3, 3), stride=(1, 1), padding=(1, 1), bias=False)
    (41): BatchNorm2d(10, eps=1e-05, momentum=0.1, affine=True, track_running_stats=True)
    (42): Conv2d(10, 1, kernel_size=(3, 3), stride=(1, 1), padding=(1, 1), bias=False)
    (43): BatchNorm2d(1, eps=1e-05, momentum=0.1, affine=True, track_running_stats=True)
    (44): Conv2d(1, 10, kernel_size=(3, 3), stride=(1, 1), padding=(1, 1), bias=False)
    (45): BatchNorm2d(10, eps=1e-05, momentum=0.1, affine=True, track_running_stats=True)
    (46): Conv2d(10, 3, kernel_size=(3, 3), stride=(1, 1), padding=(1, 1), bias=False)
    (47): BatchNorm2d(3, eps=1e-05, momentum=0.1, affine=True, track_running_stats=True)
    (48): Conv2d(3, 10, kernel_size=(3, 3), stride=(1, 1), padding=(1, 1), bias=False)
    (49): BatchNorm2d(10, eps=1e-05, momentum=0.1, affine=True, track_running_stats=True)
    (50): AdaptiveAvgPool2d(output_size=(1, 1))
    (51): Linear(in_features=10, out_features=10, bias=True)
  )
  (relu): ReLU(inplace=True)
)
Count: 2669 ; 2771 ; 0.9631901840490797
[INFO] Storing checkpoint...

  4060
  25.74
Max memory: 98.3421952
 4.189s  j: 61 bis 65
no display found. Using non-interactive Agg backend
[5, 5, 5]
Files already downloaded and verified
==> Resuming from checkpoint..
Startepoche: 61
count0: 2669

Epoch: [61 | 65] LR: 1.585938
Epoch: [61][0/13]	Time 0.890 (0.890)	Data 1.253 (1.253)	Loss 1.6872 (1.6872)	Acc@1 39.729 (39.729)	Acc@5 90.222 (90.222)
…
], ['module.conv22.weight', 'module.conv23.weight']]

Same Node:  [['module.conv2.weight', 'module.conv3.weight'], ['module.conv4.weight', 'module.conv5.weight'], ['module.conv6.weight', 'module.conv7.weight'], ['module.conv9.weight', 'module.conv10.weight'], ['module.conv11.weight', 'module.conv12.weight'], ['module.conv13.weight', 'module.conv14.weight'], ['module.conv16.weight', 'module.conv17.weight'], ['module.conv18.weight', 'module.conv19.weight'], ['module.conv20.weight', 'module.conv21.weight'], ['module.conv22.weight', 'module.conv23.weight']]
N2N(
  (module_list): ModuleList(
    (0): Conv2d(3, 2, kernel_size=(3, 3), stride=(1, 1), padding=(1, 1), bias=False)
    (1): BatchNorm2d(2, eps=1e-05, momentum=0.1, affine=True, track_running_stats=True)
    (2): Conv2d(2, 1, kernel_size=(3, 3), stride=(1, 1), padding=(1, 1), bias=False)
    (3): BatchNorm2d(1, eps=1e-05, momentum=0.1, affine=True, track_running_stats=True)
    (4): Conv2d(1, 2, kernel_size=(3, 3), stride=(1, 1), padding=(1, 1), bias=False)
    (5): BatchNorm2d(2, eps=1e-05, momentum=0.1, affine=True, track_running_stats=True)
    (6): Conv2d(2, 1, kernel_size=(3, 3), stride=(1, 1), padding=(1, 1), bias=False)
    (7): BatchNorm2d(1, eps=1e-05, momentum=0.1, affine=True, track_running_stats=True)
    (8): Conv2d(1, 2, kernel_size=(3, 3), stride=(1, 1), padding=(1, 1), bias=False)
    (9): BatchNorm2d(2, eps=1e-05, momentum=0.1, affine=True, track_running_stats=True)
    (10): Conv2d(2, 1, kernel_size=(3, 3), stride=(2, 2), padding=(1, 1), bias=False)
    (11): BatchNorm2d(1, eps=1e-05, momentum=0.1, affine=True, track_running_stats=True)
    (12): Conv2d(1, 5, kernel_size=(3, 3), stride=(1, 1), padding=(1, 1), bias=False)
    (13): BatchNorm2d(5, eps=1e-05, momentum=0.1, affine=True, track_running_stats=True)
    (14): Conv2d(2, 5, kernel_size=(3, 3), stride=(2, 2), padding=(1, 1), bias=False)
    (15): BatchNorm2d(5, eps=1e-05, momentum=0.1, affine=True, track_running_stats=True)
    (16): Conv2d(5, 1, kernel_size=(3, 3), stride=(1, 1), padding=(1, 1), bias=False)
    (17): BatchNorm2d(1, eps=1e-05, momentum=0.1, affine=True, track_running_stats=True)
    (18): Conv2d(1, 5, kernel_size=(3, 3), stride=(1, 1), padding=(1, 1), bias=False)
    (19): BatchNorm2d(5, eps=1e-05, momentum=0.1, affine=True, track_running_stats=True)
    (20): Conv2d(5, 1, kernel_size=(3, 3), stride=(1, 1), padding=(1, 1), bias=False)
    (21): BatchNorm2d(1, eps=1e-05, momentum=0.1, affine=True, track_running_stats=True)
    (22): Conv2d(1, 5, kernel_size=(3, 3), stride=(1, 1), padding=(1, 1), bias=False)
    (23): BatchNorm2d(5, eps=1e-05, momentum=0.1, affine=True, track_running_stats=True)
    (24): Conv2d(5, 2, kernel_size=(3, 3), stride=(2, 2), padding=(1, 1), bias=False)
    (25): BatchNorm2d(2, eps=1e-05, momentum=0.1, affine=True, track_running_stats=True)
    (26): Conv2d(2, 10, kernel_size=(3, 3), stride=(1, 1), padding=(1, 1), bias=False)
    (27): BatchNorm2d(10, eps=1e-05, momentum=0.1, affine=True, track_running_stats=True)
    (28): Conv2d(5, 10, kernel_size=(3, 3), stride=(2, 2), padding=(1, 1), bias=False)
    (29): BatchNorm2d(10, eps=1e-05, momentum=0.1, affine=True, track_running_stats=True)
    (30): Conv2d(10, 1, kernel_size=(3, 3), stride=(1, 1), padding=(1, 1), bias=False)
    (31): BatchNorm2d(1, eps=1e-05, momentum=0.1, affine=True, track_running_stats=True)
    (32): Conv2d(1, 10, kernel_size=(3, 3), stride=(1, 1), padding=(1, 1), bias=False)
    (33): BatchNorm2d(10, eps=1e-05, momentum=0.1, affine=True, track_running_stats=True)
    (34): Conv2d(10, 1, kernel_size=(3, 3), stride=(1, 1), padding=(1, 1), bias=False)
    (35): BatchNorm2d(1, eps=1e-05, momentum=0.1, affine=True, track_running_stats=True)
    (36): Conv2d(1, 10, kernel_size=(3, 3), stride=(1, 1), padding=(1, 1), bias=False)
    (37): BatchNorm2d(10, eps=1e-05, momentum=0.1, affine=True, track_running_stats=True)
    (38): Conv2d(10, 1, kernel_size=(3, 3), stride=(1, 1), padding=(1, 1), bias=False)
    (39): BatchNorm2d(1, eps=1e-05, momentum=0.1, affine=True, track_running_stats=True)
    (40): Conv2d(1, 10, kernel_size=(3, 3), stride=(1, 1), padding=(1, 1), bias=False)
    (41): BatchNorm2d(10, eps=1e-05, momentum=0.1, affine=True, track_running_stats=True)
    (42): Conv2d(10, 3, kernel_size=(3, 3), stride=(1, 1), padding=(1, 1), bias=False)
    (43): BatchNorm2d(3, eps=1e-05, momentum=0.1, affine=True, track_running_stats=True)
    (44): Conv2d(3, 10, kernel_size=(3, 3), stride=(1, 1), padding=(1, 1), bias=False)
    (45): BatchNorm2d(10, eps=1e-05, momentum=0.1, affine=True, track_running_stats=True)
    (46): AdaptiveAvgPool2d(output_size=(1, 1))
    (47): Linear(in_features=10, out_features=10, bias=True)
  )
  (relu): ReLU(inplace=True)
)

Same Node:  [['module.conv2.weight', 'module.conv3.weight'], ['module.conv4.weight', 'module.conv5.weight'], ['module.conv7.weight', 'module.conv8.weight'], ['module.conv9.weight', 'module.conv10.weight'], ['module.conv11.weight', 'module.conv12.weight'], ['module.conv14.weight', 'module.conv15.weight'], ['module.conv16.weight', 'module.conv17.weight'], ['module.conv18.weight', 'module.conv19.weight'], ['module.conv20.weight', 'module.conv21.weight']]

Same Node:  [['module.conv2.weight', 'module.conv3.weight'], ['module.conv4.weight', 'module.conv5.weight'], ['module.conv7.weight', 'module.conv8.weight'], ['module.conv9.weight', 'module.conv10.weight'], ['module.conv11.weight', 'module.conv12.weight'], ['module.conv14.weight', 'module.conv15.weight'], ['module.conv16.weight', 'module.conv17.weight'], ['module.conv18.weight', 'module.conv19.weight'], ['module.conv20.weight', 'module.conv21.weight']]
N2N(
  (module_list): ModuleList(
    (0): Conv2d(3, 2, kernel_size=(3, 3), stride=(1, 1), padding=(1, 1), bias=False)
    (1): BatchNorm2d(2, eps=1e-05, momentum=0.1, affine=True, track_running_stats=True)
    (2): Conv2d(2, 1, kernel_size=(3, 3), stride=(1, 1), padding=(1, 1), bias=False)
    (3): BatchNorm2d(1, eps=1e-05, momentum=0.1, affine=True, track_running_stats=True)
    (4): Conv2d(1, 2, kernel_size=(3, 3), stride=(1, 1), padding=(1, 1), bias=False)
    (5): BatchNorm2d(2, eps=1e-05, momentum=0.1, affine=True, track_running_stats=True)
    (6): Conv2d(2, 1, kernel_size=(3, 3), stride=(2, 2), padding=(1, 1), bias=False)
    (7): BatchNorm2d(1, eps=1e-05, momentum=0.1, affine=True, track_running_stats=True)
    (8): Conv2d(1, 5, kernel_size=(3, 3), stride=(1, 1), padding=(1, 1), bias=False)
    (9): BatchNorm2d(5, eps=1e-05, momentum=0.1, affine=True, track_running_stats=True)
    (10): Conv2d(2, 5, kernel_size=(3, 3), stride=(2, 2), padding=(1, 1), bias=False)
    (11): BatchNorm2d(5, eps=1e-05, momentum=0.1, affine=True, track_running_stats=True)
    (12): Conv2d(5, 1, kernel_size=(3, 3), stride=(1, 1), padding=(1, 1), bias=False)
    (13): BatchNorm2d(1, eps=1e-05, momentum=0.1, affine=True, track_running_stats=True)
    (14): Conv2d(1, 5, kernel_size=(3, 3), stride=(1, 1), padding=(1, 1), bias=False)
    (15): BatchNorm2d(5, eps=1e-05, momentum=0.1, affine=True, track_running_stats=True)
    (16): Conv2d(5, 1, kernel_size=(3, 3), stride=(1, 1), padding=(1, 1), bias=False)
    (17): BatchNorm2d(1, eps=1e-05, momentum=0.1, affine=True, track_running_stats=True)
    (18): Conv2d(1, 5, kernel_size=(3, 3), stride=(1, 1), padding=(1, 1), bias=False)
    (19): BatchNorm2d(5, eps=1e-05, momentum=0.1, affine=True, track_running_stats=True)
    (20): Conv2d(5, 2, kernel_size=(3, 3), stride=(2, 2), padding=(1, 1), bias=False)
    (21): BatchNorm2d(2, eps=1e-05, momentum=0.1, affine=True, track_running_stats=True)
    (22): Conv2d(2, 10, kernel_size=(3, 3), stride=(1, 1), padding=(1, 1), bias=False)
    (23): BatchNorm2d(10, eps=1e-05, momentum=0.1, affine=True, track_running_stats=True)
    (24): Conv2d(5, 10, kernel_size=(3, 3), stride=(2, 2), padding=(1, 1), bias=False)
    (25): BatchNorm2d(10, eps=1e-05, momentum=0.1, affine=True, track_running_stats=True)
    (26): Conv2d(10, 1, kernel_size=(3, 3), stride=(1, 1), padding=(1, 1), bias=False)
    (27): BatchNorm2d(1, eps=1e-05, momentum=0.1, affine=True, track_running_stats=True)
    (28): Conv2d(1, 10, kernel_size=(3, 3), stride=(1, 1), padding=(1, 1), bias=False)
    (29): BatchNorm2d(10, eps=1e-05, momentum=0.1, affine=True, track_running_stats=True)
    (30): Conv2d(10, 1, kernel_size=(3, 3), stride=(1, 1), padding=(1, 1), bias=False)
    (31): BatchNorm2d(1, eps=1e-05, momentum=0.1, affine=True, track_running_stats=True)
    (32): Conv2d(1, 10, kernel_size=(3, 3), stride=(1, 1), padding=(1, 1), bias=False)
    (33): BatchNorm2d(10, eps=1e-05, momentum=0.1, affine=True, track_running_stats=True)
    (34): Conv2d(10, 1, kernel_size=(3, 3), stride=(1, 1), padding=(1, 1), bias=False)
    (35): BatchNorm2d(1, eps=1e-05, momentum=0.1, affine=True, track_running_stats=True)
    (36): Conv2d(1, 10, kernel_size=(3, 3), stride=(1, 1), padding=(1, 1), bias=False)
    (37): BatchNorm2d(10, eps=1e-05, momentum=0.1, affine=True, track_running_stats=True)
    (38): Conv2d(10, 3, kernel_size=(3, 3), stride=(1, 1), padding=(1, 1), bias=False)
    (39): BatchNorm2d(3, eps=1e-05, momentum=0.1, affine=True, track_running_stats=True)
    (40): Conv2d(3, 10, kernel_size=(3, 3), stride=(1, 1), padding=(1, 1), bias=False)
    (41): BatchNorm2d(10, eps=1e-05, momentum=0.1, affine=True, track_running_stats=True)
    (42): AdaptiveAvgPool2d(output_size=(1, 1))
    (43): Linear(in_features=10, out_features=10, bias=True)
  )
  (relu): ReLU(inplace=True)
)
Count: 2525 ; 2669 ; 0.9460472086923941
[INFO] Storing checkpoint...

  4060
  14.45
Max memory: 93.2484096
 3.742s  j: 71 bis 75
no display found. Using non-interactive Agg backend
[5, 5, 5]
Files already downloaded and verified
==> Resuming from checkpoint..
Startepoche: 71
count0: 2525

Epoch: [71 | 75] LR: 1.585938
Epoch: [71][0/13]	Time 0.806 (0.806)	Data 2.046 (2.046)	Loss 1.7435 (1.7435)	Acc@1 37.734 (37.734)	Acc@5 90.345 (90.345)
…
Same Node:  [['module.conv2.weight', 'module.conv3.weight'], ['module.conv4.weight', 'module.conv5.weight'], ['module.conv7.weight', 'module.conv8.weight'], ['module.conv9.weight', 'module.conv10.weight'], ['module.conv12.weight', 'module.conv13.weight'], ['module.conv14.weight', 'module.conv15.weight'], ['module.conv16.weight', 'module.conv17.weight'], ['module.conv18.weight', 'module.conv19.weight']]

Same Node:  [['module.conv2.weight', 'module.conv3.weight'], ['module.conv4.weight', 'module.conv5.weight'], ['module.conv7.weight', 'module.conv8.weight'], ['module.conv9.weight', 'module.conv10.weight'], ['module.conv12.weight', 'module.conv13.weight'], ['module.conv14.weight', 'module.conv15.weight'], ['module.conv16.weight', 'module.conv17.weight'], ['module.conv18.weight', 'module.conv19.weight']]
N2N(
  (module_list): ModuleList(
    (0): Conv2d(3, 2, kernel_size=(3, 3), stride=(1, 1), padding=(1, 1), bias=False)
    (1): BatchNorm2d(2, eps=1e-05, momentum=0.1, affine=True, track_running_stats=True)
    (2): Conv2d(2, 1, kernel_size=(3, 3), stride=(1, 1), padding=(1, 1), bias=False)
    (3): BatchNorm2d(1, eps=1e-05, momentum=0.1, affine=True, track_running_stats=True)
    (4): Conv2d(1, 2, kernel_size=(3, 3), stride=(1, 1), padding=(1, 1), bias=False)
    (5): BatchNorm2d(2, eps=1e-05, momentum=0.1, affine=True, track_running_stats=True)
    (6): Conv2d(2, 1, kernel_size=(3, 3), stride=(2, 2), padding=(1, 1), bias=False)
    (7): BatchNorm2d(1, eps=1e-05, momentum=0.1, affine=True, track_running_stats=True)
    (8): Conv2d(1, 5, kernel_size=(3, 3), stride=(1, 1), padding=(1, 1), bias=False)
    (9): BatchNorm2d(5, eps=1e-05, momentum=0.1, affine=True, track_running_stats=True)
    (10): Conv2d(2, 5, kernel_size=(3, 3), stride=(2, 2), padding=(1, 1), bias=False)
    (11): BatchNorm2d(5, eps=1e-05, momentum=0.1, affine=True, track_running_stats=True)
    (12): Conv2d(5, 1, kernel_size=(3, 3), stride=(1, 1), padding=(1, 1), bias=False)
    (13): BatchNorm2d(1, eps=1e-05, momentum=0.1, affine=True, track_running_stats=True)
    (14): Conv2d(1, 5, kernel_size=(3, 3), stride=(1, 1), padding=(1, 1), bias=False)
    (15): BatchNorm2d(5, eps=1e-05, momentum=0.1, affine=True, track_running_stats=True)
    (16): Conv2d(5, 2, kernel_size=(3, 3), stride=(2, 2), padding=(1, 1), bias=False)
    (17): BatchNorm2d(2, eps=1e-05, momentum=0.1, affine=True, track_running_stats=True)
    (18): Conv2d(2, 10, kernel_size=(3, 3), stride=(1, 1), padding=(1, 1), bias=False)
    (19): BatchNorm2d(10, eps=1e-05, momentum=0.1, affine=True, track_running_stats=True)
    (20): Conv2d(5, 10, kernel_size=(3, 3), stride=(2, 2), padding=(1, 1), bias=False)
    (21): BatchNorm2d(10, eps=1e-05, momentum=0.1, affine=True, track_running_stats=True)
    (22): Conv2d(10, 1, kernel_size=(3, 3), stride=(1, 1), padding=(1, 1), bias=False)
    (23): BatchNorm2d(1, eps=1e-05, momentum=0.1, affine=True, track_running_stats=True)
    (24): Conv2d(1, 10, kernel_size=(3, 3), stride=(1, 1), padding=(1, 1), bias=False)
    (25): BatchNorm2d(10, eps=1e-05, momentum=0.1, affine=True, track_running_stats=True)
    (26): Conv2d(10, 1, kernel_size=(3, 3), stride=(1, 1), padding=(1, 1), bias=False)
    (27): BatchNorm2d(1, eps=1e-05, momentum=0.1, affine=True, track_running_stats=True)
    (28): Conv2d(1, 10, kernel_size=(3, 3), stride=(1, 1), padding=(1, 1), bias=False)
    (29): BatchNorm2d(10, eps=1e-05, momentum=0.1, affine=True, track_running_stats=True)
    (30): Conv2d(10, 1, kernel_size=(3, 3), stride=(1, 1), padding=(1, 1), bias=False)
    (31): BatchNorm2d(1, eps=1e-05, momentum=0.1, affine=True, track_running_stats=True)
    (32): Conv2d(1, 10, kernel_size=(3, 3), stride=(1, 1), padding=(1, 1), bias=False)
    (33): BatchNorm2d(10, eps=1e-05, momentum=0.1, affine=True, track_running_stats=True)
    (34): Conv2d(10, 3, kernel_size=(3, 3), stride=(1, 1), padding=(1, 1), bias=False)
    (35): BatchNorm2d(3, eps=1e-05, momentum=0.1, affine=True, track_running_stats=True)
    (36): Conv2d(3, 10, kernel_size=(3, 3), stride=(1, 1), padding=(1, 1), bias=False)
    (37): BatchNorm2d(10, eps=1e-05, momentum=0.1, affine=True, track_running_stats=True)
    (38): AdaptiveAvgPool2d(output_size=(1, 1))
    (39): Linear(in_features=10, out_features=10, bias=True)
  )
  (relu): ReLU(inplace=True)
)
Count: 2423 ; 2525 ; 0.9596039603960396
[INFO] Storing checkpoint...

  4060
  24.71
Max memory: 80.3221504
 3.629s  j: 86 bis 90
no display found. Using non-interactive Agg backend
[5, 5, 5]
Files already downloaded and verified
==> Resuming from checkpoint..
Startepoche: 86
count0: 2423

Epoch: [86 | 90] LR: 1.585938
Epoch: [86][0/13]	Time 0.811 (0.811)	Data 1.192 (1.192)	Loss 1.7279 (1.7279)	Acc@1 38.350 (38.350)	Acc@5 90.222 (90.222)
…
Same Node:  [['module.conv2.weight', 'module.conv3.weight'], ['module.conv4.weight', 'module.conv5.weight'], ['module.conv7.weight', 'module.conv8.weight'], ['module.conv10.weight', 'module.conv11.weight'], ['module.conv12.weight', 'module.conv13.weight'], ['module.conv14.weight', 'module.conv15.weight'], ['module.conv16.weight', 'module.conv17.weight']]

Same Node:  [['module.conv2.weight', 'module.conv3.weight'], ['module.conv4.weight', 'module.conv5.weight'], ['module.conv7.weight', 'module.conv8.weight'], ['module.conv10.weight', 'module.conv11.weight'], ['module.conv12.weight', 'module.conv13.weight'], ['module.conv14.weight', 'module.conv15.weight'], ['module.conv16.weight', 'module.conv17.weight']]
N2N(
  (module_list): ModuleList(
    (0): Conv2d(3, 2, kernel_size=(3, 3), stride=(1, 1), padding=(1, 1), bias=False)
    (1): BatchNorm2d(2, eps=1e-05, momentum=0.1, affine=True, track_running_stats=True)
    (2): Conv2d(2, 1, kernel_size=(3, 3), stride=(1, 1), padding=(1, 1), bias=False)
    (3): BatchNorm2d(1, eps=1e-05, momentum=0.1, affine=True, track_running_stats=True)
    (4): Conv2d(1, 2, kernel_size=(3, 3), stride=(1, 1), padding=(1, 1), bias=False)
    (5): BatchNorm2d(2, eps=1e-05, momentum=0.1, affine=True, track_running_stats=True)
    (6): Conv2d(2, 1, kernel_size=(3, 3), stride=(2, 2), padding=(1, 1), bias=False)
    (7): BatchNorm2d(1, eps=1e-05, momentum=0.1, affine=True, track_running_stats=True)
    (8): Conv2d(1, 5, kernel_size=(3, 3), stride=(1, 1), padding=(1, 1), bias=False)
    (9): BatchNorm2d(5, eps=1e-05, momentum=0.1, affine=True, track_running_stats=True)
    (10): Conv2d(2, 5, kernel_size=(3, 3), stride=(2, 2), padding=(1, 1), bias=False)
    (11): BatchNorm2d(5, eps=1e-05, momentum=0.1, affine=True, track_running_stats=True)
    (12): Conv2d(5, 2, kernel_size=(3, 3), stride=(2, 2), padding=(1, 1), bias=False)
    (13): BatchNorm2d(2, eps=1e-05, momentum=0.1, affine=True, track_running_stats=True)
    (14): Conv2d(2, 10, kernel_size=(3, 3), stride=(1, 1), padding=(1, 1), bias=False)
    (15): BatchNorm2d(10, eps=1e-05, momentum=0.1, affine=True, track_running_stats=True)
    (16): Conv2d(5, 10, kernel_size=(3, 3), stride=(2, 2), padding=(1, 1), bias=False)
    (17): BatchNorm2d(10, eps=1e-05, momentum=0.1, affine=True, track_running_stats=True)
    (18): Conv2d(10, 1, kernel_size=(3, 3), stride=(1, 1), padding=(1, 1), bias=False)
    (19): BatchNorm2d(1, eps=1e-05, momentum=0.1, affine=True, track_running_stats=True)
    (20): Conv2d(1, 10, kernel_size=(3, 3), stride=(1, 1), padding=(1, 1), bias=False)
    (21): BatchNorm2d(10, eps=1e-05, momentum=0.1, affine=True, track_running_stats=True)
    (22): Conv2d(10, 1, kernel_size=(3, 3), stride=(1, 1), padding=(1, 1), bias=False)
    (23): BatchNorm2d(1, eps=1e-05, momentum=0.1, affine=True, track_running_stats=True)
    (24): Conv2d(1, 10, kernel_size=(3, 3), stride=(1, 1), padding=(1, 1), bias=False)
    (25): BatchNorm2d(10, eps=1e-05, momentum=0.1, affine=True, track_running_stats=True)
    (26): Conv2d(10, 1, kernel_size=(3, 3), stride=(1, 1), padding=(1, 1), bias=False)
    (27): BatchNorm2d(1, eps=1e-05, momentum=0.1, affine=True, track_running_stats=True)
    (28): Conv2d(1, 10, kernel_size=(3, 3), stride=(1, 1), padding=(1, 1), bias=False)
    (29): BatchNorm2d(10, eps=1e-05, momentum=0.1, affine=True, track_running_stats=True)
    (30): Conv2d(10, 3, kernel_size=(3, 3), stride=(1, 1), padding=(1, 1), bias=False)
    (31): BatchNorm2d(3, eps=1e-05, momentum=0.1, affine=True, track_running_stats=True)
    (32): Conv2d(3, 10, kernel_size=(3, 3), stride=(1, 1), padding=(1, 1), bias=False)
    (33): BatchNorm2d(10, eps=1e-05, momentum=0.1, affine=True, track_running_stats=True)
    (34): AdaptiveAvgPool2d(output_size=(1, 1))
    (35): Linear(in_features=10, out_features=10, bias=True)
  )
  (relu): ReLU(inplace=True)
)
Count: 2321 ; 2423 ; 0.9579034255055716
[INFO] Storing checkpoint...

  4060
  17.58
Max memory: 80.3212288
 3.423s  j: 96 bis 100
no display found. Using non-interactive Agg backend
[5, 5, 5]
Files already downloaded and verified
==> Resuming from checkpoint..
Startepoche: 96
count0: 2321

Epoch: [96 | 100] LR: 1.585938
…
Same Node:  [['module.conv2.weight', 'module.conv3.weight'], ['module.conv4.weight', 'module.conv5.weight'], ['module.conv7.weight', 'module.conv8.weight'], ['module.conv9.weight', 'module.conv10.weight'], ['module.conv11.weight', 'module.conv12.weight'], ['module.conv13.weight', 'module.conv14.weight']]

Same Node:  [['module.conv2.weight', 'module.conv3.weight'], ['module.conv4.weight', 'module.conv5.weight'], ['module.conv7.weight', 'module.conv8.weight'], ['module.conv9.weight', 'module.conv10.weight'], ['module.conv11.weight', 'module.conv12.weight'], ['module.conv13.weight', 'module.conv14.weight']]
N2N(
  (module_list): ModuleList(
    (0): Conv2d(3, 2, kernel_size=(3, 3), stride=(1, 1), padding=(1, 1), bias=False)
    (1): BatchNorm2d(2, eps=1e-05, momentum=0.1, affine=True, track_running_stats=True)
    (2): Conv2d(2, 1, kernel_size=(3, 3), stride=(1, 1), padding=(1, 1), bias=False)
    (3): BatchNorm2d(1, eps=1e-05, momentum=0.1, affine=True, track_running_stats=True)
    (4): Conv2d(1, 2, kernel_size=(3, 3), stride=(1, 1), padding=(1, 1), bias=False)
    (5): BatchNorm2d(2, eps=1e-05, momentum=0.1, affine=True, track_running_stats=True)
    (6): Conv2d(5, 2, kernel_size=(3, 3), stride=(2, 2), padding=(1, 1), bias=False)
    (7): BatchNorm2d(2, eps=1e-05, momentum=0.1, affine=True, track_running_stats=True)
    (8): Conv2d(2, 10, kernel_size=(3, 3), stride=(1, 1), padding=(1, 1), bias=False)
    (9): BatchNorm2d(10, eps=1e-05, momentum=0.1, affine=True, track_running_stats=True)
    (10): Conv2d(5, 10, kernel_size=(3, 3), stride=(2, 2), padding=(1, 1), bias=False)
    (11): BatchNorm2d(10, eps=1e-05, momentum=0.1, affine=True, track_running_stats=True)
    (12): Conv2d(10, 1, kernel_size=(3, 3), stride=(1, 1), padding=(1, 1), bias=False)
    (13): BatchNorm2d(1, eps=1e-05, momentum=0.1, affine=True, track_running_stats=True)
    (14): Conv2d(1, 10, kernel_size=(3, 3), stride=(1, 1), padding=(1, 1), bias=False)
    (15): BatchNorm2d(10, eps=1e-05, momentum=0.1, affine=True, track_running_stats=True)
    (16): Conv2d(10, 1, kernel_size=(3, 3), stride=(1, 1), padding=(1, 1), bias=False)
    (17): BatchNorm2d(1, eps=1e-05, momentum=0.1, affine=True, track_running_stats=True)
    (18): Conv2d(1, 10, kernel_size=(3, 3), stride=(1, 1), padding=(1, 1), bias=False)
    (19): BatchNorm2d(10, eps=1e-05, momentum=0.1, affine=True, track_running_stats=True)
    (20): Conv2d(10, 1, kernel_size=(3, 3), stride=(1, 1), padding=(1, 1), bias=False)
    (21): BatchNorm2d(1, eps=1e-05, momentum=0.1, affine=True, track_running_stats=True)
    (22): Conv2d(1, 10, kernel_size=(3, 3), stride=(1, 1), padding=(1, 1), bias=False)
    (23): BatchNorm2d(10, eps=1e-05, momentum=0.1, affine=True, track_running_stats=True)
    (24): Conv2d(10, 3, kernel_size=(3, 3), stride=(1, 1), padding=(1, 1), bias=False)
    (25): BatchNorm2d(3, eps=1e-05, momentum=0.1, affine=True, track_running_stats=True)
    (26): Conv2d(3, 10, kernel_size=(3, 3), stride=(1, 1), padding=(1, 1), bias=False)
    (27): BatchNorm2d(10, eps=1e-05, momentum=0.1, affine=True, track_running_stats=True)
    (28): AdaptiveAvgPool2d(output_size=(1, 1))
    (29): Linear(in_features=10, out_features=10, bias=True)
  )
  (relu): ReLU(inplace=True)
)
Count: 2146 ; 2321 ; 0.9246014648858251
[INFO] Storing checkpoint...

  4060
  21.12
Max memory: 80.3203072
 4.035s  j: 111 bis 115
no display found. Using non-interactive Agg backend
[5, 5, 5]
Files already downloaded and verified
==> Resuming from checkpoint..
Startepoche: 111
count0: 2146

Epoch: [111 | 115] LR: 1.585938
…
