…
[INFO] Storing checkpoint...

Epoch: [20 | 20] LR: 0.203485
Epoch: [20][0/189]	Time 1.044 (1.044)	Data 0.245 (0.245)	Loss 0.9675 (0.9675)	Acc@1 77.736 (77.736)	Acc@5 99.245 (99.245)
Epoch: [20][64/189]	Time 0.969 (1.006)	Data 0.000 (0.004)	Loss 0.9315 (0.8896)	Acc@1 78.113 (80.557)	Acc@5 98.491 (98.961)
Epoch: [20][128/189]	Time 0.809 (0.925)	Data 0.000 (0.002)	Loss 0.9597 (0.8891)	Acc@1 78.491 (80.570)	Acc@5 98.113 (98.924)
[INFO] Force the sparse filters to zero...
[INFO] Squeezing the sparse model to dense one...

 RM:  module.conv21.weight

 RM:  module.conv22.weight
N2N(
  (module_list): ModuleList(
    (0): Conv2d(3, 16, kernel_size=(3, 3), stride=(1, 1), padding=(1, 1), bias=False)
    (1): BatchNorm2d(16, eps=1e-05, momentum=0.1, affine=True, track_running_stats=True)
    (2): Conv2d(16, 15, kernel_size=(3, 3), stride=(1, 1), padding=(1, 1), bias=False)
    (3): BatchNorm2d(15, eps=1e-05, momentum=0.1, affine=True, track_running_stats=True)
    (4): Conv2d(15, 16, kernel_size=(3, 3), stride=(1, 1), padding=(1, 1), bias=False)
    (5): BatchNorm2d(16, eps=1e-05, momentum=0.1, affine=True, track_running_stats=True)
    (6): Conv2d(16, 16, kernel_size=(3, 3), stride=(1, 1), padding=(1, 1), bias=False)
    (7): BatchNorm2d(16, eps=1e-05, momentum=0.1, affine=True, track_running_stats=True)
    (8): Conv2d(16, 16, kernel_size=(3, 3), stride=(1, 1), padding=(1, 1), bias=False)
    (9): BatchNorm2d(16, eps=1e-05, momentum=0.1, affine=True, track_running_stats=True)
    (10): Conv2d(16, 16, kernel_size=(3, 3), stride=(1, 1), padding=(1, 1), bias=False)
    (11): BatchNorm2d(16, eps=1e-05, momentum=0.1, affine=True, track_running_stats=True)
    (12): Conv2d(16, 16, kernel_size=(3, 3), stride=(1, 1), padding=(1, 1), bias=False)
    (13): BatchNorm2d(16, eps=1e-05, momentum=0.1, affine=True, track_running_stats=True)
    (14): Conv2d(16, 14, kernel_size=(3, 3), stride=(1, 1), padding=(1, 1), bias=False)
    (15): BatchNorm2d(14, eps=1e-05, momentum=0.1, affine=True, track_running_stats=True)
    (16): Conv2d(14, 16, kernel_size=(3, 3), stride=(1, 1), padding=(1, 1), bias=False)
    (17): BatchNorm2d(16, eps=1e-05, momentum=0.1, affine=True, track_running_stats=True)
    (18): Conv2d(16, 9, kernel_size=(3, 3), stride=(1, 1), padding=(1, 1), bias=False)
    (19): BatchNorm2d(9, eps=1e-05, momentum=0.1, affine=True, track_running_stats=True)
    (20): Conv2d(9, 16, kernel_size=(3, 3), stride=(1, 1), padding=(1, 1), bias=False)
    (21): BatchNorm2d(16, eps=1e-05, momentum=0.1, affine=True, track_running_stats=True)
    (22): Conv2d(16, 31, kernel_size=(3, 3), stride=(2, 2), padding=(1, 1), bias=False)
    (23): BatchNorm2d(31, eps=1e-05, momentum=0.1, affine=True, track_running_stats=True)
    (24): Conv2d(31, 32, kernel_size=(3, 3), stride=(1, 1), padding=(1, 1), bias=False)
    (25): BatchNorm2d(32, eps=1e-05, momentum=0.1, affine=True, track_running_stats=True)
    (26): Conv2d(16, 32, kernel_size=(3, 3), stride=(2, 2), padding=(1, 1), bias=False)
    (27): BatchNorm2d(32, eps=1e-05, momentum=0.1, affine=True, track_running_stats=True)
    (28): Conv2d(32, 31, kernel_size=(3, 3), stride=(1, 1), padding=(1, 1), bias=False)
    (29): BatchNorm2d(31, eps=1e-05, momentum=0.1, affine=True, track_running_stats=True)
    (30): Conv2d(31, 32, kernel_size=(3, 3), stride=(1, 1), padding=(1, 1), bias=False)
    (31): BatchNorm2d(32, eps=1e-05, momentum=0.1, affine=True, track_running_stats=True)
    (32): Conv2d(32, 22, kernel_size=(3, 3), stride=(1, 1), padding=(1, 1), bias=False)
    (33): BatchNorm2d(22, eps=1e-05, momentum=0.1, affine=True, track_running_stats=True)
    (34): Conv2d(22, 32, kernel_size=(3, 3), stride=(1, 1), padding=(1, 1), bias=False)
    (35): BatchNorm2d(32, eps=1e-05, momentum=0.1, affine=True, track_running_stats=True)
    (36): Conv2d(32, 16, kernel_size=(3, 3), stride=(1, 1), padding=(1, 1), bias=False)
    (37): BatchNorm2d(16, eps=1e-05, momentum=0.1, affine=True, track_running_stats=True)
    (38): Conv2d(16, 32, kernel_size=(3, 3), stride=(1, 1), padding=(1, 1), bias=False)
    (39): BatchNorm2d(32, eps=1e-05, momentum=0.1, affine=True, track_running_stats=True)
    (40): Conv2d(32, 63, kernel_size=(3, 3), stride=(2, 2), padding=(1, 1), bias=False)
    (41): BatchNorm2d(63, eps=1e-05, momentum=0.1, affine=True, track_running_stats=True)
    (42): Conv2d(63, 63, kernel_size=(3, 3), stride=(1, 1), padding=(1, 1), bias=False)
    (43): BatchNorm2d(63, eps=1e-05, momentum=0.1, affine=True, track_running_stats=True)
    (44): Conv2d(32, 63, kernel_size=(3, 3), stride=(2, 2), padding=(1, 1), bias=False)
    (45): BatchNorm2d(63, eps=1e-05, momentum=0.1, affine=True, track_running_stats=True)
    (46): Conv2d(63, 55, kernel_size=(3, 3), stride=(1, 1), padding=(1, 1), bias=False)
    (47): BatchNorm2d(55, eps=1e-05, momentum=0.1, affine=True, track_running_stats=True)
    (48): Conv2d(55, 63, kernel_size=(3, 3), stride=(1, 1), padding=(1, 1), bias=False)
    (49): BatchNorm2d(63, eps=1e-05, momentum=0.1, affine=True, track_running_stats=True)
    (50): Conv2d(63, 25, kernel_size=(3, 3), stride=(1, 1), padding=(1, 1), bias=False)
    (51): BatchNorm2d(25, eps=1e-05, momentum=0.1, affine=True, track_running_stats=True)
    (52): Conv2d(25, 63, kernel_size=(3, 3), stride=(1, 1), padding=(1, 1), bias=False)
    (53): BatchNorm2d(63, eps=1e-05, momentum=0.1, affine=True, track_running_stats=True)
    (54): Conv2d(63, 37, kernel_size=(3, 3), stride=(1, 1), padding=(1, 1), bias=False)
    (55): BatchNorm2d(37, eps=1e-05, momentum=0.1, affine=True, track_running_stats=True)
    (56): Conv2d(37, 63, kernel_size=(3, 3), stride=(1, 1), padding=(1, 1), bias=False)
    (57): BatchNorm2d(63, eps=1e-05, momentum=0.1, affine=True, track_running_stats=True)
    (58): Conv2d(63, 61, kernel_size=(3, 3), stride=(1, 1), padding=(1, 1), bias=False)
    (59): BatchNorm2d(61, eps=1e-05, momentum=0.1, affine=True, track_running_stats=True)
    (60): Conv2d(61, 63, kernel_size=(3, 3), stride=(1, 1), padding=(1, 1), bias=False)
    (61): BatchNorm2d(63, eps=1e-05, momentum=0.1, affine=True, track_running_stats=True)
    (62): AdaptiveAvgPool2d(output_size=(1, 1))
    (63): Linear(in_features=63, out_features=10, bias=True)
  )
  (relu): ReLU(inplace=True)
)
Count: 295153 ; 356725 ; 0.8273964538510057
[INFO] Storing checkpoint...

  265
  68.58
Max memory: 93.7616384
 173.818s  j: 21 bis 25
no display found. Using non-interactive Agg backend
[5, 5, 5]
Files already downloaded and verified
==> Resuming from checkpoint..
count0: 295153

Epoch: [21 | 25] LR: 0.203485
Epoch: [21][0/189]	Time 2.178 (2.178)	Data 0.273 (0.273)	Loss 0.8487 (0.8487)	Acc@1 84.528 (84.528)	Acc@5 98.868 (98.868)
…
[INFO] Storing checkpoint...

Epoch: [35 | 35] LR: 0.203485
Epoch: [35][0/189]	Time 0.968 (0.968)	Data 0.313 (0.313)	Loss 0.7786 (0.7786)	Acc@1 84.151 (84.151)	Acc@5 98.868 (98.868)
Epoch: [35][64/189]	Time 0.977 (0.946)	Data 0.000 (0.005)	Loss 0.8987 (0.8383)	Acc@1 81.132 (81.620)	Acc@5 98.868 (99.083)
Epoch: [35][128/189]	Time 0.945 (0.889)	Data 0.000 (0.003)	Loss 0.8199 (0.8465)	Acc@1 86.415 (81.369)	Acc@5 98.491 (99.035)
[INFO] Force the sparse filters to zero...
[INFO] Squeezing the sparse model to dense one...

 RM:  module.conv19.weight

 RM:  module.conv20.weight
N2N(
  (module_list): ModuleList(
    (0): Conv2d(3, 16, kernel_size=(3, 3), stride=(1, 1), padding=(1, 1), bias=False)
    (1): BatchNorm2d(16, eps=1e-05, momentum=0.1, affine=True, track_running_stats=True)
    (2): Conv2d(16, 15, kernel_size=(3, 3), stride=(1, 1), padding=(1, 1), bias=False)
    (3): BatchNorm2d(15, eps=1e-05, momentum=0.1, affine=True, track_running_stats=True)
    (4): Conv2d(15, 16, kernel_size=(3, 3), stride=(1, 1), padding=(1, 1), bias=False)
    (5): BatchNorm2d(16, eps=1e-05, momentum=0.1, affine=True, track_running_stats=True)
    (6): Conv2d(16, 12, kernel_size=(3, 3), stride=(1, 1), padding=(1, 1), bias=False)
    (7): BatchNorm2d(12, eps=1e-05, momentum=0.1, affine=True, track_running_stats=True)
    (8): Conv2d(12, 16, kernel_size=(3, 3), stride=(1, 1), padding=(1, 1), bias=False)
    (9): BatchNorm2d(16, eps=1e-05, momentum=0.1, affine=True, track_running_stats=True)
    (10): Conv2d(16, 11, kernel_size=(3, 3), stride=(1, 1), padding=(1, 1), bias=False)
    (11): BatchNorm2d(11, eps=1e-05, momentum=0.1, affine=True, track_running_stats=True)
    (12): Conv2d(11, 16, kernel_size=(3, 3), stride=(1, 1), padding=(1, 1), bias=False)
    (13): BatchNorm2d(16, eps=1e-05, momentum=0.1, affine=True, track_running_stats=True)
    (14): Conv2d(16, 12, kernel_size=(3, 3), stride=(1, 1), padding=(1, 1), bias=False)
    (15): BatchNorm2d(12, eps=1e-05, momentum=0.1, affine=True, track_running_stats=True)
    (16): Conv2d(12, 16, kernel_size=(3, 3), stride=(1, 1), padding=(1, 1), bias=False)
    (17): BatchNorm2d(16, eps=1e-05, momentum=0.1, affine=True, track_running_stats=True)
    (18): Conv2d(16, 5, kernel_size=(3, 3), stride=(1, 1), padding=(1, 1), bias=False)
    (19): BatchNorm2d(5, eps=1e-05, momentum=0.1, affine=True, track_running_stats=True)
    (20): Conv2d(5, 16, kernel_size=(3, 3), stride=(1, 1), padding=(1, 1), bias=False)
    (21): BatchNorm2d(16, eps=1e-05, momentum=0.1, affine=True, track_running_stats=True)
    (22): Conv2d(16, 28, kernel_size=(3, 3), stride=(2, 2), padding=(1, 1), bias=False)
    (23): BatchNorm2d(28, eps=1e-05, momentum=0.1, affine=True, track_running_stats=True)
    (24): Conv2d(28, 32, kernel_size=(3, 3), stride=(1, 1), padding=(1, 1), bias=False)
    (25): BatchNorm2d(32, eps=1e-05, momentum=0.1, affine=True, track_running_stats=True)
    (26): Conv2d(16, 32, kernel_size=(3, 3), stride=(2, 2), padding=(1, 1), bias=False)
    (27): BatchNorm2d(32, eps=1e-05, momentum=0.1, affine=True, track_running_stats=True)
    (28): Conv2d(32, 28, kernel_size=(3, 3), stride=(1, 1), padding=(1, 1), bias=False)
    (29): BatchNorm2d(28, eps=1e-05, momentum=0.1, affine=True, track_running_stats=True)
    (30): Conv2d(28, 32, kernel_size=(3, 3), stride=(1, 1), padding=(1, 1), bias=False)
    (31): BatchNorm2d(32, eps=1e-05, momentum=0.1, affine=True, track_running_stats=True)
    (32): Conv2d(32, 1, kernel_size=(3, 3), stride=(1, 1), padding=(1, 1), bias=False)
    (33): BatchNorm2d(1, eps=1e-05, momentum=0.1, affine=True, track_running_stats=True)
    (34): Conv2d(1, 32, kernel_size=(3, 3), stride=(1, 1), padding=(1, 1), bias=False)
    (35): BatchNorm2d(32, eps=1e-05, momentum=0.1, affine=True, track_running_stats=True)
    (36): Conv2d(32, 62, kernel_size=(3, 3), stride=(2, 2), padding=(1, 1), bias=False)
    (37): BatchNorm2d(62, eps=1e-05, momentum=0.1, affine=True, track_running_stats=True)
    (38): Conv2d(62, 63, kernel_size=(3, 3), stride=(1, 1), padding=(1, 1), bias=False)
    (39): BatchNorm2d(63, eps=1e-05, momentum=0.1, affine=True, track_running_stats=True)
    (40): Conv2d(32, 63, kernel_size=(3, 3), stride=(2, 2), padding=(1, 1), bias=False)
    (41): BatchNorm2d(63, eps=1e-05, momentum=0.1, affine=True, track_running_stats=True)
    (42): Conv2d(63, 50, kernel_size=(3, 3), stride=(1, 1), padding=(1, 1), bias=False)
    (43): BatchNorm2d(50, eps=1e-05, momentum=0.1, affine=True, track_running_stats=True)
    (44): Conv2d(50, 63, kernel_size=(3, 3), stride=(1, 1), padding=(1, 1), bias=False)
    (45): BatchNorm2d(63, eps=1e-05, momentum=0.1, affine=True, track_running_stats=True)
    (46): Conv2d(63, 3, kernel_size=(3, 3), stride=(1, 1), padding=(1, 1), bias=False)
    (47): BatchNorm2d(3, eps=1e-05, momentum=0.1, affine=True, track_running_stats=True)
    (48): Conv2d(3, 63, kernel_size=(3, 3), stride=(1, 1), padding=(1, 1), bias=False)
    (49): BatchNorm2d(63, eps=1e-05, momentum=0.1, affine=True, track_running_stats=True)
    (50): Conv2d(63, 3, kernel_size=(3, 3), stride=(1, 1), padding=(1, 1), bias=False)
    (51): BatchNorm2d(3, eps=1e-05, momentum=0.1, affine=True, track_running_stats=True)
    (52): Conv2d(3, 63, kernel_size=(3, 3), stride=(1, 1), padding=(1, 1), bias=False)
    (53): BatchNorm2d(63, eps=1e-05, momentum=0.1, affine=True, track_running_stats=True)
    (54): Conv2d(63, 54, kernel_size=(3, 3), stride=(1, 1), padding=(1, 1), bias=False)
    (55): BatchNorm2d(54, eps=1e-05, momentum=0.1, affine=True, track_running_stats=True)
    (56): Conv2d(54, 63, kernel_size=(3, 3), stride=(1, 1), padding=(1, 1), bias=False)
    (57): BatchNorm2d(63, eps=1e-05, momentum=0.1, affine=True, track_running_stats=True)
    (58): AdaptiveAvgPool2d(output_size=(1, 1))
    (59): Linear(in_features=63, out_features=10, bias=True)
  )
  (relu): ReLU(inplace=True)
)
Count: 242118 ; 248628 ; 0.9738163038756696
[INFO] Storing checkpoint...

  265
  71.21
Max memory: 81.6894464
 171.786s  j: 36 bis 40
no display found. Using non-interactive Agg backend
[5, 5, 5]
Files already downloaded and verified
==> Resuming from checkpoint..
count0: 242118

Epoch: [36 | 40] LR: 0.203485
Epoch: [36][0/189]	Time 2.123 (2.123)	Data 0.326 (0.326)	Loss 0.8180 (0.8180)	Acc@1 83.774 (83.774)	Acc@5 99.623 (99.623)
…
[INFO] Storing checkpoint...

Epoch: [45 | 45] LR: 0.203485
Epoch: [45][0/189]	Time 0.925 (0.925)	Data 0.448 (0.448)	Loss 0.8589 (0.8589)	Acc@1 82.264 (82.264)	Acc@5 99.623 (99.623)
Epoch: [45][64/189]	Time 0.806 (0.874)	Data 0.000 (0.007)	Loss 0.8289 (0.8384)	Acc@1 81.887 (81.451)	Acc@5 98.491 (98.984)
Epoch: [45][128/189]	Time 0.882 (0.829)	Data 0.000 (0.004)	Loss 0.8314 (0.8389)	Acc@1 81.887 (81.378)	Acc@5 98.868 (98.932)
[INFO] Force the sparse filters to zero...
[INFO] Squeezing the sparse model to dense one...

 RM:  module.conv17.weight

 RM:  module.conv18.weight
N2N(
  (module_list): ModuleList(
    (0): Conv2d(3, 16, kernel_size=(3, 3), stride=(1, 1), padding=(1, 1), bias=False)
    (1): BatchNorm2d(16, eps=1e-05, momentum=0.1, affine=True, track_running_stats=True)
    (2): Conv2d(16, 14, kernel_size=(3, 3), stride=(1, 1), padding=(1, 1), bias=False)
    (3): BatchNorm2d(14, eps=1e-05, momentum=0.1, affine=True, track_running_stats=True)
    (4): Conv2d(14, 16, kernel_size=(3, 3), stride=(1, 1), padding=(1, 1), bias=False)
    (5): BatchNorm2d(16, eps=1e-05, momentum=0.1, affine=True, track_running_stats=True)
    (6): Conv2d(16, 12, kernel_size=(3, 3), stride=(1, 1), padding=(1, 1), bias=False)
    (7): BatchNorm2d(12, eps=1e-05, momentum=0.1, affine=True, track_running_stats=True)
    (8): Conv2d(12, 16, kernel_size=(3, 3), stride=(1, 1), padding=(1, 1), bias=False)
    (9): BatchNorm2d(16, eps=1e-05, momentum=0.1, affine=True, track_running_stats=True)
    (10): Conv2d(16, 8, kernel_size=(3, 3), stride=(1, 1), padding=(1, 1), bias=False)
    (11): BatchNorm2d(8, eps=1e-05, momentum=0.1, affine=True, track_running_stats=True)
    (12): Conv2d(8, 16, kernel_size=(3, 3), stride=(1, 1), padding=(1, 1), bias=False)
    (13): BatchNorm2d(16, eps=1e-05, momentum=0.1, affine=True, track_running_stats=True)
    (14): Conv2d(16, 12, kernel_size=(3, 3), stride=(1, 1), padding=(1, 1), bias=False)
    (15): BatchNorm2d(12, eps=1e-05, momentum=0.1, affine=True, track_running_stats=True)
    (16): Conv2d(12, 16, kernel_size=(3, 3), stride=(1, 1), padding=(1, 1), bias=False)
    (17): BatchNorm2d(16, eps=1e-05, momentum=0.1, affine=True, track_running_stats=True)
    (18): Conv2d(16, 5, kernel_size=(3, 3), stride=(1, 1), padding=(1, 1), bias=False)
    (19): BatchNorm2d(5, eps=1e-05, momentum=0.1, affine=True, track_running_stats=True)
    (20): Conv2d(5, 16, kernel_size=(3, 3), stride=(1, 1), padding=(1, 1), bias=False)
    (21): BatchNorm2d(16, eps=1e-05, momentum=0.1, affine=True, track_running_stats=True)
    (22): Conv2d(16, 23, kernel_size=(3, 3), stride=(2, 2), padding=(1, 1), bias=False)
    (23): BatchNorm2d(23, eps=1e-05, momentum=0.1, affine=True, track_running_stats=True)
    (24): Conv2d(23, 32, kernel_size=(3, 3), stride=(1, 1), padding=(1, 1), bias=False)
    (25): BatchNorm2d(32, eps=1e-05, momentum=0.1, affine=True, track_running_stats=True)
    (26): Conv2d(16, 32, kernel_size=(3, 3), stride=(2, 2), padding=(1, 1), bias=False)
    (27): BatchNorm2d(32, eps=1e-05, momentum=0.1, affine=True, track_running_stats=True)
    (28): Conv2d(32, 27, kernel_size=(3, 3), stride=(1, 1), padding=(1, 1), bias=False)
    (29): BatchNorm2d(27, eps=1e-05, momentum=0.1, affine=True, track_running_stats=True)
    (30): Conv2d(27, 32, kernel_size=(3, 3), stride=(1, 1), padding=(1, 1), bias=False)
    (31): BatchNorm2d(32, eps=1e-05, momentum=0.1, affine=True, track_running_stats=True)
    (32): Conv2d(32, 62, kernel_size=(3, 3), stride=(2, 2), padding=(1, 1), bias=False)
    (33): BatchNorm2d(62, eps=1e-05, momentum=0.1, affine=True, track_running_stats=True)
    (34): Conv2d(62, 62, kernel_size=(3, 3), stride=(1, 1), padding=(1, 1), bias=False)
    (35): BatchNorm2d(62, eps=1e-05, momentum=0.1, affine=True, track_running_stats=True)
    (36): Conv2d(32, 62, kernel_size=(3, 3), stride=(2, 2), padding=(1, 1), bias=False)
    (37): BatchNorm2d(62, eps=1e-05, momentum=0.1, affine=True, track_running_stats=True)
    (38): Conv2d(62, 48, kernel_size=(3, 3), stride=(1, 1), padding=(1, 1), bias=False)
    (39): BatchNorm2d(48, eps=1e-05, momentum=0.1, affine=True, track_running_stats=True)
    (40): Conv2d(48, 62, kernel_size=(3, 3), stride=(1, 1), padding=(1, 1), bias=False)
    (41): BatchNorm2d(62, eps=1e-05, momentum=0.1, affine=True, track_running_stats=True)
    (42): Conv2d(62, 2, kernel_size=(3, 3), stride=(1, 1), padding=(1, 1), bias=False)
    (43): BatchNorm2d(2, eps=1e-05, momentum=0.1, affine=True, track_running_stats=True)
    (44): Conv2d(2, 62, kernel_size=(3, 3), stride=(1, 1), padding=(1, 1), bias=False)
    (45): BatchNorm2d(62, eps=1e-05, momentum=0.1, affine=True, track_running_stats=True)
    (46): Conv2d(62, 2, kernel_size=(3, 3), stride=(1, 1), padding=(1, 1), bias=False)
    (47): BatchNorm2d(2, eps=1e-05, momentum=0.1, affine=True, track_running_stats=True)
    (48): Conv2d(2, 62, kernel_size=(3, 3), stride=(1, 1), padding=(1, 1), bias=False)
    (49): BatchNorm2d(62, eps=1e-05, momentum=0.1, affine=True, track_running_stats=True)
    (50): Conv2d(62, 52, kernel_size=(3, 3), stride=(1, 1), padding=(1, 1), bias=False)
    (51): BatchNorm2d(52, eps=1e-05, momentum=0.1, affine=True, track_running_stats=True)
    (52): Conv2d(52, 62, kernel_size=(3, 3), stride=(1, 1), padding=(1, 1), bias=False)
    (53): BatchNorm2d(62, eps=1e-05, momentum=0.1, affine=True, track_running_stats=True)
    (54): AdaptiveAvgPool2d(output_size=(1, 1))
    (55): Linear(in_features=62, out_features=10, bias=True)
  )
  (relu): ReLU(inplace=True)
)
Count: 228354 ; 234522 ; 0.9736996955509505
[INFO] Storing checkpoint...

  265
  74.88
Max memory: 76.288
 160.490s  j: 46 bis 50
no display found. Using non-interactive Agg backend
[5, 5, 5]
Files already downloaded and verified
==> Resuming from checkpoint..
count0: 228354

Epoch: [46 | 50] LR: 0.203485
Epoch: [46][0/189]	Time 2.165 (2.165)	Data 0.332 (0.332)	Loss 0.8856 (0.8856)	Acc@1 80.000 (80.000)	Acc@5 97.736 (97.736)
…
[INFO] Storing checkpoint...

Epoch: [55 | 55] LR: 0.203485
Epoch: [55][0/189]	Time 0.860 (0.860)	Data 0.352 (0.352)	Loss 0.8294 (0.8294)	Acc@1 84.528 (84.528)	Acc@5 99.245 (99.245)
Epoch: [55][64/189]	Time 0.771 (0.825)	Data 0.000 (0.006)	Loss 0.8412 (0.8343)	Acc@1 82.264 (81.707)	Acc@5 99.623 (99.089)
Epoch: [55][128/189]	Time 0.841 (0.824)	Data 0.000 (0.003)	Loss 0.7671 (0.8345)	Acc@1 84.151 (81.641)	Acc@5 99.623 (99.043)
[INFO] Force the sparse filters to zero...
[INFO] Squeezing the sparse model to dense one...

 RM:  module.conv22.weight

 RM:  module.conv23.weight
N2N(
  (module_list): ModuleList(
    (0): Conv2d(3, 16, kernel_size=(3, 3), stride=(1, 1), padding=(1, 1), bias=False)
    (1): BatchNorm2d(16, eps=1e-05, momentum=0.1, affine=True, track_running_stats=True)
    (2): Conv2d(16, 13, kernel_size=(3, 3), stride=(1, 1), padding=(1, 1), bias=False)
    (3): BatchNorm2d(13, eps=1e-05, momentum=0.1, affine=True, track_running_stats=True)
    (4): Conv2d(13, 16, kernel_size=(3, 3), stride=(1, 1), padding=(1, 1), bias=False)
    (5): BatchNorm2d(16, eps=1e-05, momentum=0.1, affine=True, track_running_stats=True)
    (6): Conv2d(16, 9, kernel_size=(3, 3), stride=(1, 1), padding=(1, 1), bias=False)
    (7): BatchNorm2d(9, eps=1e-05, momentum=0.1, affine=True, track_running_stats=True)
    (8): Conv2d(9, 16, kernel_size=(3, 3), stride=(1, 1), padding=(1, 1), bias=False)
    (9): BatchNorm2d(16, eps=1e-05, momentum=0.1, affine=True, track_running_stats=True)
    (10): Conv2d(16, 7, kernel_size=(3, 3), stride=(1, 1), padding=(1, 1), bias=False)
    (11): BatchNorm2d(7, eps=1e-05, momentum=0.1, affine=True, track_running_stats=True)
    (12): Conv2d(7, 16, kernel_size=(3, 3), stride=(1, 1), padding=(1, 1), bias=False)
    (13): BatchNorm2d(16, eps=1e-05, momentum=0.1, affine=True, track_running_stats=True)
    (14): Conv2d(16, 10, kernel_size=(3, 3), stride=(1, 1), padding=(1, 1), bias=False)
    (15): BatchNorm2d(10, eps=1e-05, momentum=0.1, affine=True, track_running_stats=True)
    (16): Conv2d(10, 16, kernel_size=(3, 3), stride=(1, 1), padding=(1, 1), bias=False)
    (17): BatchNorm2d(16, eps=1e-05, momentum=0.1, affine=True, track_running_stats=True)
    (18): Conv2d(16, 5, kernel_size=(3, 3), stride=(1, 1), padding=(1, 1), bias=False)
    (19): BatchNorm2d(5, eps=1e-05, momentum=0.1, affine=True, track_running_stats=True)
    (20): Conv2d(5, 16, kernel_size=(3, 3), stride=(1, 1), padding=(1, 1), bias=False)
    (21): BatchNorm2d(16, eps=1e-05, momentum=0.1, affine=True, track_running_stats=True)
    (22): Conv2d(16, 22, kernel_size=(3, 3), stride=(2, 2), padding=(1, 1), bias=False)
    (23): BatchNorm2d(22, eps=1e-05, momentum=0.1, affine=True, track_running_stats=True)
    (24): Conv2d(22, 32, kernel_size=(3, 3), stride=(1, 1), padding=(1, 1), bias=False)
    (25): BatchNorm2d(32, eps=1e-05, momentum=0.1, affine=True, track_running_stats=True)
    (26): Conv2d(16, 32, kernel_size=(3, 3), stride=(2, 2), padding=(1, 1), bias=False)
    (27): BatchNorm2d(32, eps=1e-05, momentum=0.1, affine=True, track_running_stats=True)
    (28): Conv2d(32, 26, kernel_size=(3, 3), stride=(1, 1), padding=(1, 1), bias=False)
    (29): BatchNorm2d(26, eps=1e-05, momentum=0.1, affine=True, track_running_stats=True)
    (30): Conv2d(26, 32, kernel_size=(3, 3), stride=(1, 1), padding=(1, 1), bias=False)
    (31): BatchNorm2d(32, eps=1e-05, momentum=0.1, affine=True, track_running_stats=True)
    (32): Conv2d(32, 62, kernel_size=(3, 3), stride=(2, 2), padding=(1, 1), bias=False)
    (33): BatchNorm2d(62, eps=1e-05, momentum=0.1, affine=True, track_running_stats=True)
    (34): Conv2d(62, 62, kernel_size=(3, 3), stride=(1, 1), padding=(1, 1), bias=False)
    (35): BatchNorm2d(62, eps=1e-05, momentum=0.1, affine=True, track_running_stats=True)
    (36): Conv2d(32, 62, kernel_size=(3, 3), stride=(2, 2), padding=(1, 1), bias=False)
    (37): BatchNorm2d(62, eps=1e-05, momentum=0.1, affine=True, track_running_stats=True)
    (38): Conv2d(62, 47, kernel_size=(3, 3), stride=(1, 1), padding=(1, 1), bias=False)
    (39): BatchNorm2d(47, eps=1e-05, momentum=0.1, affine=True, track_running_stats=True)
    (40): Conv2d(47, 62, kernel_size=(3, 3), stride=(1, 1), padding=(1, 1), bias=False)
    (41): BatchNorm2d(62, eps=1e-05, momentum=0.1, affine=True, track_running_stats=True)
    (42): Conv2d(62, 1, kernel_size=(3, 3), stride=(1, 1), padding=(1, 1), bias=False)
    (43): BatchNorm2d(1, eps=1e-05, momentum=0.1, affine=True, track_running_stats=True)
    (44): Conv2d(1, 62, kernel_size=(3, 3), stride=(1, 1), padding=(1, 1), bias=False)
    (45): BatchNorm2d(62, eps=1e-05, momentum=0.1, affine=True, track_running_stats=True)
    (46): Conv2d(62, 51, kernel_size=(3, 3), stride=(1, 1), padding=(1, 1), bias=False)
    (47): BatchNorm2d(51, eps=1e-05, momentum=0.1, affine=True, track_running_stats=True)
    (48): Conv2d(51, 62, kernel_size=(3, 3), stride=(1, 1), padding=(1, 1), bias=False)
    (49): BatchNorm2d(62, eps=1e-05, momentum=0.1, affine=True, track_running_stats=True)
    (50): AdaptiveAvgPool2d(output_size=(1, 1))
    (51): Linear(in_features=62, out_features=10, bias=True)
  )
  (relu): ReLU(inplace=True)
)
Count: 223676 ; 226366 ; 0.9881165899472536
[INFO] Storing checkpoint...

  265
  73.9
Max memory: 71.5884032
 155.829s  j: 56 bis 60
no display found. Using non-interactive Agg backend
[5, 5, 5]
Files already downloaded and verified
==> Resuming from checkpoint..
count0: 223676

Epoch: [56 | 60] LR: 0.203485
Epoch: [56][0/189]	Time 1.708 (1.708)	Data 0.417 (0.417)	Loss 0.8338 (0.8338)	Acc@1 83.396 (83.396)	Acc@5 99.623 (99.623)
…
