…
Epoch: [60][0/196]	Time 0.965 (0.965)	Data 0.739 (0.739)	Loss 0.5959 (0.5959)	Acc@1 89.062 (89.062)	Acc@5 99.219 (99.219)
Epoch: [60][64/196]	Time 0.728 (0.937)	Data 0.000 (0.013)	Loss 0.6204 (0.6732)	Acc@1 87.891 (86.556)	Acc@5 98.828 (99.465)
Epoch: [60][128/196]	Time 0.944 (0.893)	Data 0.000 (0.007)	Loss 0.6678 (0.6811)	Acc@1 87.891 (86.386)	Acc@5 100.000 (99.437)
Epoch: [60][192/196]	Time 0.993 (0.919)	Data 0.000 (0.005)	Loss 0.6780 (0.6835)	Acc@1 86.328 (86.249)	Acc@5 99.219 (99.441)
[INFO] Force the sparse filters to zero...
[INFO] Squeezing the sparse model to dense one...

 RM:  module.conv19.weight

 RM:  module.conv20.weight
N2N(
  (module_list): ModuleList(
    (0): Conv2d(3, 16, kernel_size=(3, 3), stride=(1, 1), padding=(1, 1), bias=False)
    (1): BatchNorm2d(16, eps=1e-05, momentum=0.1, affine=True, track_running_stats=True)
    (2): Conv2d(16, 16, kernel_size=(3, 3), stride=(1, 1), padding=(1, 1), bias=False)
    (3): BatchNorm2d(16, eps=1e-05, momentum=0.1, affine=True, track_running_stats=True)
    (4): Conv2d(16, 16, kernel_size=(3, 3), stride=(1, 1), padding=(1, 1), bias=False)
    (5): BatchNorm2d(16, eps=1e-05, momentum=0.1, affine=True, track_running_stats=True)
    (6): Conv2d(16, 14, kernel_size=(3, 3), stride=(1, 1), padding=(1, 1), bias=False)
    (7): BatchNorm2d(14, eps=1e-05, momentum=0.1, affine=True, track_running_stats=True)
    (8): Conv2d(14, 16, kernel_size=(3, 3), stride=(1, 1), padding=(1, 1), bias=False)
    (9): BatchNorm2d(16, eps=1e-05, momentum=0.1, affine=True, track_running_stats=True)
    (10): Conv2d(16, 16, kernel_size=(3, 3), stride=(1, 1), padding=(1, 1), bias=False)
    (11): BatchNorm2d(16, eps=1e-05, momentum=0.1, affine=True, track_running_stats=True)
    (12): Conv2d(16, 16, kernel_size=(3, 3), stride=(1, 1), padding=(1, 1), bias=False)
    (13): BatchNorm2d(16, eps=1e-05, momentum=0.1, affine=True, track_running_stats=True)
    (14): Conv2d(16, 15, kernel_size=(3, 3), stride=(1, 1), padding=(1, 1), bias=False)
    (15): BatchNorm2d(15, eps=1e-05, momentum=0.1, affine=True, track_running_stats=True)
    (16): Conv2d(15, 16, kernel_size=(3, 3), stride=(1, 1), padding=(1, 1), bias=False)
    (17): BatchNorm2d(16, eps=1e-05, momentum=0.1, affine=True, track_running_stats=True)
    (18): Conv2d(16, 12, kernel_size=(3, 3), stride=(1, 1), padding=(1, 1), bias=False)
    (19): BatchNorm2d(12, eps=1e-05, momentum=0.1, affine=True, track_running_stats=True)
    (20): Conv2d(12, 16, kernel_size=(3, 3), stride=(1, 1), padding=(1, 1), bias=False)
    (21): BatchNorm2d(16, eps=1e-05, momentum=0.1, affine=True, track_running_stats=True)
    (22): Conv2d(16, 32, kernel_size=(3, 3), stride=(2, 2), padding=(1, 1), bias=False)
    (23): BatchNorm2d(32, eps=1e-05, momentum=0.1, affine=True, track_running_stats=True)
    (24): Conv2d(32, 32, kernel_size=(3, 3), stride=(1, 1), padding=(1, 1), bias=False)
    (25): BatchNorm2d(32, eps=1e-05, momentum=0.1, affine=True, track_running_stats=True)
    (26): Conv2d(16, 32, kernel_size=(3, 3), stride=(2, 2), padding=(1, 1), bias=False)
    (27): BatchNorm2d(32, eps=1e-05, momentum=0.1, affine=True, track_running_stats=True)
    (28): Conv2d(32, 32, kernel_size=(3, 3), stride=(1, 1), padding=(1, 1), bias=False)
    (29): BatchNorm2d(32, eps=1e-05, momentum=0.1, affine=True, track_running_stats=True)
    (30): Conv2d(32, 32, kernel_size=(3, 3), stride=(1, 1), padding=(1, 1), bias=False)
    (31): BatchNorm2d(32, eps=1e-05, momentum=0.1, affine=True, track_running_stats=True)
    (32): Conv2d(32, 25, kernel_size=(3, 3), stride=(1, 1), padding=(1, 1), bias=False)
    (33): BatchNorm2d(25, eps=1e-05, momentum=0.1, affine=True, track_running_stats=True)
    (34): Conv2d(25, 32, kernel_size=(3, 3), stride=(1, 1), padding=(1, 1), bias=False)
    (35): BatchNorm2d(32, eps=1e-05, momentum=0.1, affine=True, track_running_stats=True)
    (36): Conv2d(32, 1, kernel_size=(3, 3), stride=(1, 1), padding=(1, 1), bias=False)
    (37): BatchNorm2d(1, eps=1e-05, momentum=0.1, affine=True, track_running_stats=True)
    (38): Conv2d(1, 32, kernel_size=(3, 3), stride=(1, 1), padding=(1, 1), bias=False)
    (39): BatchNorm2d(32, eps=1e-05, momentum=0.1, affine=True, track_running_stats=True)
    (40): Conv2d(32, 64, kernel_size=(3, 3), stride=(2, 2), padding=(1, 1), bias=False)
    (41): BatchNorm2d(64, eps=1e-05, momentum=0.1, affine=True, track_running_stats=True)
    (42): Conv2d(64, 64, kernel_size=(3, 3), stride=(1, 1), padding=(1, 1), bias=False)
    (43): BatchNorm2d(64, eps=1e-05, momentum=0.1, affine=True, track_running_stats=True)
    (44): Conv2d(32, 64, kernel_size=(3, 3), stride=(2, 2), padding=(1, 1), bias=False)
    (45): BatchNorm2d(64, eps=1e-05, momentum=0.1, affine=True, track_running_stats=True)
    (46): Conv2d(64, 64, kernel_size=(3, 3), stride=(1, 1), padding=(1, 1), bias=False)
    (47): BatchNorm2d(64, eps=1e-05, momentum=0.1, affine=True, track_running_stats=True)
    (48): Conv2d(64, 64, kernel_size=(3, 3), stride=(1, 1), padding=(1, 1), bias=False)
    (49): BatchNorm2d(64, eps=1e-05, momentum=0.1, affine=True, track_running_stats=True)
    (50): Conv2d(64, 52, kernel_size=(3, 3), stride=(1, 1), padding=(1, 1), bias=False)
    (51): BatchNorm2d(52, eps=1e-05, momentum=0.1, affine=True, track_running_stats=True)
    (52): Conv2d(52, 64, kernel_size=(3, 3), stride=(1, 1), padding=(1, 1), bias=False)
    (53): BatchNorm2d(64, eps=1e-05, momentum=0.1, affine=True, track_running_stats=True)
    (54): Conv2d(64, 62, kernel_size=(3, 3), stride=(1, 1), padding=(1, 1), bias=False)
    (55): BatchNorm2d(62, eps=1e-05, momentum=0.1, affine=True, track_running_stats=True)
    (56): Conv2d(62, 64, kernel_size=(3, 3), stride=(1, 1), padding=(1, 1), bias=False)
    (57): BatchNorm2d(64, eps=1e-05, momentum=0.1, affine=True, track_running_stats=True)
    (58): Conv2d(64, 20, kernel_size=(3, 3), stride=(1, 1), padding=(1, 1), bias=False)
    (59): BatchNorm2d(20, eps=1e-05, momentum=0.1, affine=True, track_running_stats=True)
    (60): Conv2d(20, 64, kernel_size=(3, 3), stride=(1, 1), padding=(1, 1), bias=False)
    (61): BatchNorm2d(64, eps=1e-05, momentum=0.1, affine=True, track_running_stats=True)
    (62): AdaptiveAvgPool2d(output_size=(1, 1))
    (63): Linear(in_features=64, out_features=10, bias=True)
  )
  (relu): ReLU(inplace=True)
)
Count: 374144 ; 378542 ; 0.9883817383540003
[INFO] Storing checkpoint...

  256
  81.02
Max memory: 94.016768
 181.126s  j: 61 bis 65
no display found. Using non-interactive Agg backend
[5, 5, 5]
Files already downloaded and verified
==> Resuming from checkpoint..
Startepoche: 61
count0: 374144

Epoch: [61 | 65] LR: 0.100000
…
Epoch: [95][0/196]	Time 0.928 (0.928)	Data 0.887 (0.887)	Loss 0.4527 (0.4527)	Acc@1 92.188 (92.188)	Acc@5 99.609 (99.609)
Epoch: [95][64/196]	Time 1.261 (0.911)	Data 0.002 (0.015)	Loss 0.4441 (0.4736)	Acc@1 94.531 (93.125)	Acc@5 100.000 (99.838)
Epoch: [95][128/196]	Time 1.119 (0.813)	Data 0.000 (0.008)	Loss 0.4400 (0.4742)	Acc@1 95.312 (93.226)	Acc@5 99.609 (99.852)
Epoch: [95][192/196]	Time 1.061 (0.863)	Data 0.000 (0.006)	Loss 0.4435 (0.4723)	Acc@1 94.531 (93.291)	Acc@5 99.609 (99.856)
[INFO] Force the sparse filters to zero...
[INFO] Squeezing the sparse model to dense one...

 RM:  module.conv19.weight

 RM:  module.conv20.weight
N2N(
  (module_list): ModuleList(
    (0): Conv2d(3, 16, kernel_size=(3, 3), stride=(1, 1), padding=(1, 1), bias=False)
    (1): BatchNorm2d(16, eps=1e-05, momentum=0.1, affine=True, track_running_stats=True)
    (2): Conv2d(16, 16, kernel_size=(3, 3), stride=(1, 1), padding=(1, 1), bias=False)
    (3): BatchNorm2d(16, eps=1e-05, momentum=0.1, affine=True, track_running_stats=True)
    (4): Conv2d(16, 16, kernel_size=(3, 3), stride=(1, 1), padding=(1, 1), bias=False)
    (5): BatchNorm2d(16, eps=1e-05, momentum=0.1, affine=True, track_running_stats=True)
    (6): Conv2d(16, 13, kernel_size=(3, 3), stride=(1, 1), padding=(1, 1), bias=False)
    (7): BatchNorm2d(13, eps=1e-05, momentum=0.1, affine=True, track_running_stats=True)
    (8): Conv2d(13, 16, kernel_size=(3, 3), stride=(1, 1), padding=(1, 1), bias=False)
    (9): BatchNorm2d(16, eps=1e-05, momentum=0.1, affine=True, track_running_stats=True)
    (10): Conv2d(16, 14, kernel_size=(3, 3), stride=(1, 1), padding=(1, 1), bias=False)
    (11): BatchNorm2d(14, eps=1e-05, momentum=0.1, affine=True, track_running_stats=True)
    (12): Conv2d(14, 16, kernel_size=(3, 3), stride=(1, 1), padding=(1, 1), bias=False)
    (13): BatchNorm2d(16, eps=1e-05, momentum=0.1, affine=True, track_running_stats=True)
    (14): Conv2d(16, 14, kernel_size=(3, 3), stride=(1, 1), padding=(1, 1), bias=False)
    (15): BatchNorm2d(14, eps=1e-05, momentum=0.1, affine=True, track_running_stats=True)
    (16): Conv2d(14, 16, kernel_size=(3, 3), stride=(1, 1), padding=(1, 1), bias=False)
    (17): BatchNorm2d(16, eps=1e-05, momentum=0.1, affine=True, track_running_stats=True)
    (18): Conv2d(16, 10, kernel_size=(3, 3), stride=(1, 1), padding=(1, 1), bias=False)
    (19): BatchNorm2d(10, eps=1e-05, momentum=0.1, affine=True, track_running_stats=True)
    (20): Conv2d(10, 16, kernel_size=(3, 3), stride=(1, 1), padding=(1, 1), bias=False)
    (21): BatchNorm2d(16, eps=1e-05, momentum=0.1, affine=True, track_running_stats=True)
    (22): Conv2d(16, 30, kernel_size=(3, 3), stride=(2, 2), padding=(1, 1), bias=False)
    (23): BatchNorm2d(30, eps=1e-05, momentum=0.1, affine=True, track_running_stats=True)
    (24): Conv2d(30, 32, kernel_size=(3, 3), stride=(1, 1), padding=(1, 1), bias=False)
    (25): BatchNorm2d(32, eps=1e-05, momentum=0.1, affine=True, track_running_stats=True)
    (26): Conv2d(16, 32, kernel_size=(3, 3), stride=(2, 2), padding=(1, 1), bias=False)
    (27): BatchNorm2d(32, eps=1e-05, momentum=0.1, affine=True, track_running_stats=True)
    (28): Conv2d(32, 31, kernel_size=(3, 3), stride=(1, 1), padding=(1, 1), bias=False)
    (29): BatchNorm2d(31, eps=1e-05, momentum=0.1, affine=True, track_running_stats=True)
    (30): Conv2d(31, 32, kernel_size=(3, 3), stride=(1, 1), padding=(1, 1), bias=False)
    (31): BatchNorm2d(32, eps=1e-05, momentum=0.1, affine=True, track_running_stats=True)
    (32): Conv2d(32, 21, kernel_size=(3, 3), stride=(1, 1), padding=(1, 1), bias=False)
    (33): BatchNorm2d(21, eps=1e-05, momentum=0.1, affine=True, track_running_stats=True)
    (34): Conv2d(21, 32, kernel_size=(3, 3), stride=(1, 1), padding=(1, 1), bias=False)
    (35): BatchNorm2d(32, eps=1e-05, momentum=0.1, affine=True, track_running_stats=True)
    (36): Conv2d(32, 64, kernel_size=(3, 3), stride=(2, 2), padding=(1, 1), bias=False)
    (37): BatchNorm2d(64, eps=1e-05, momentum=0.1, affine=True, track_running_stats=True)
    (38): Conv2d(64, 64, kernel_size=(3, 3), stride=(1, 1), padding=(1, 1), bias=False)
    (39): BatchNorm2d(64, eps=1e-05, momentum=0.1, affine=True, track_running_stats=True)
    (40): Conv2d(32, 64, kernel_size=(3, 3), stride=(2, 2), padding=(1, 1), bias=False)
    (41): BatchNorm2d(64, eps=1e-05, momentum=0.1, affine=True, track_running_stats=True)
    (42): Conv2d(64, 64, kernel_size=(3, 3), stride=(1, 1), padding=(1, 1), bias=False)
    (43): BatchNorm2d(64, eps=1e-05, momentum=0.1, affine=True, track_running_stats=True)
    (44): Conv2d(64, 64, kernel_size=(3, 3), stride=(1, 1), padding=(1, 1), bias=False)
    (45): BatchNorm2d(64, eps=1e-05, momentum=0.1, affine=True, track_running_stats=True)
    (46): Conv2d(64, 49, kernel_size=(3, 3), stride=(1, 1), padding=(1, 1), bias=False)
    (47): BatchNorm2d(49, eps=1e-05, momentum=0.1, affine=True, track_running_stats=True)
    (48): Conv2d(49, 64, kernel_size=(3, 3), stride=(1, 1), padding=(1, 1), bias=False)
    (49): BatchNorm2d(64, eps=1e-05, momentum=0.1, affine=True, track_running_stats=True)
    (50): Conv2d(64, 62, kernel_size=(3, 3), stride=(1, 1), padding=(1, 1), bias=False)
    (51): BatchNorm2d(62, eps=1e-05, momentum=0.1, affine=True, track_running_stats=True)
    (52): Conv2d(62, 64, kernel_size=(3, 3), stride=(1, 1), padding=(1, 1), bias=False)
    (53): BatchNorm2d(64, eps=1e-05, momentum=0.1, affine=True, track_running_stats=True)
    (54): Conv2d(64, 14, kernel_size=(3, 3), stride=(1, 1), padding=(1, 1), bias=False)
    (55): BatchNorm2d(14, eps=1e-05, momentum=0.1, affine=True, track_running_stats=True)
    (56): Conv2d(14, 64, kernel_size=(3, 3), stride=(1, 1), padding=(1, 1), bias=False)
    (57): BatchNorm2d(64, eps=1e-05, momentum=0.1, affine=True, track_running_stats=True)
    (58): AdaptiveAvgPool2d(output_size=(1, 1))
    (59): Linear(in_features=64, out_features=10, bias=True)
  )
  (relu): ReLU(inplace=True)
)
Count: 357912 ; 362016 ; 0.9886634844868735
[INFO] Storing checkpoint...

  256
  90.5
Max memory: 89.2402176
 170.562s  j: 96 bis 100
no display found. Using non-interactive Agg backend
[5, 5, 5]
Files already downloaded and verified
==> Resuming from checkpoint..
Startepoche: 96
count0: 357912

Epoch: [96 | 100] LR: 0.010000
…
